neuralnetwork/soilclassifier/soil_net.pth (torch, 249222 bytes, 10 tensors)

conv1.weight f4 [6, 3, 5, 5]
000000 11 b7 7d bd 4b 71 da 3d 1e ef 8d bd 9f fb ce bd
       -0.061942164 0.1066614 -0.069303736 -0.10106587
000010 95 0e a6 3d 88 1e eb 3d 7c c1 e0 bc c7 78 d2 bc
       0.0810825 0.11480433 -0.02743601 -0.025692357
000020 de 32 c7 3d 79 c1 e2 3d 7b bd 12 3c f5 3f fd bc
       0.09726499 0.11072058 0.0089563085 -0.030914286
000030 ff 68 a6 bd 0a 10 98 3d 7f 0f 78 bd 94 a3 79 3c
       -0.08125495 0.07424934 -0.060561653 0.015236754
000040 ec a4 ad bd 82 98 f5 3d d2 ca d1 3d 27 97 a7 bd
       -0.08478722 0.11991979 0.10243763 -0.08183127
000050 00 fd c0 bd 10 a9 56 bd 7c 6b cc 3b 61 24 d3 3d
       -0.09423256 -0.052407324 0.006238399 0.10309673
000060 a9 7a a2 3d 24 20 32 bd 1d bc 20 3c 05 b1 97 bc
       0.07933552 -0.043487683 0.009810475 -0.018517027
000070 ed 76 44 3d 07 64 bb 3d e3 03 66 bd d1 e2 9c bd
       0.04796498 0.09149938 -0.05615605 -0.07660449
000080 79 14 1f bc 10 ca e8 bd 65 8a 1c bc 85 36 46 3c
       -0.009709471 -0.11366665 -0.00955448 0.012097959
000090 ad ba 08 3d c4 ec b1 bd 52 52 ce bd b8 27 7f bc
       0.033381153 -0.086877376 -0.10074295 -0.0155734345
0000a0 a8 a1 80 3d ae f8 19 3c 09 29 c0 bd 40 bd 1d bd
       0.062808335 0.009397669 -0.09382827 -0.03851056
0000b0 fc 12 22 bd 23 0d 60 bd f9 af ce 3d af 8b 7d bc
       -0.039568886 -0.05470003 0.10092158 -0.015475198
0000c0 4f fc 31 bb 91 ed aa bb 1a fc a5 bd 46 2d 1a be
       -0.0027158444 -0.0052163084 -0.08104725 -0.15056333
0000d0 c8 00 f5 3c df 54 1f 3c d1 bd d7 bd d9 a8 0c be
       0.0299076 0.009724825 -0.105342515 -0.13736285
0000e0 ed 7f 21 bd c1 9b 4b bd ed f0 f2 3c b6 cf ed 39
       -0.03942864 -0.049709085 0.029655898 0.0004535892
0000f0 a8 76 ee bd 47 b8 a7 bd 79 d8 25 3c 21 37 d5 3c
       -0.11643726 -0.08189445 0.010122412 0.026027264
000100 77 d8 aa bd d9 e4 d6 bd e6 8e 4a bd 05 6d 8c bd
       -0.08342069 -0.10492868 -0.049452685 -0.06856731
000110 1c 47 62 3c 9c 2f a4 bc b5 38 87 bd f2 0a 9a bd
       0.013810899 -0.020042233 -0.06602613 -0.07521619
000120 76 4b af bc 3c 78 47 bd b8 ff f1 bd 51 71 4f bd
       -0.021398287 -0.04869865 -0.118163526 -0.050645176
000130 dd 8e b3 bd a2 e5 b6 bd 63 2a 95 3d 78 91 e1 ba
       -0.087674834 -0.08930518 0.07283475 -0.0017209491
000140 6c 96 2a ba 65 af d7 bd c6 8c cc bd f4 60 1a bd
       -0.00065074 -0.10531501 -0.09987788 -0.037690118
000150 6d 96 20 bd b6 00 9b 3c 1d 82 1a bd 9e ab 3c bd
       -0.039205957 0.018921237 -0.037721742 -0.046062104
000160 ca 1a ef bd 22 e5 02 bd ba 30 5c 3c b6 3b 61 bd
       -0.116750315 -0.0319568 0.013439352 -0.054988585
000170 38 97 bd 3c 94 4f 3d 3d b2 c8 0d bd 79 22 30 bc
       0.023143396 0.04621847 -0.034615226 -0.010750406
000180 e7 4f 1f bd 61 a4 1b bc eb 3c ae bd e7 d0 c3 bd
       -0.03889456 -0.00949964 -0.08507713 -0.09561329
000190 ff b8 30 bd 00 bb 48 3d f6 0b f3 3c d4 41 34 bd
       -0.043145176 0.049006462 0.02966879 -0.04400809
0001a0 a3 b2 10 bd 40 31 04 be cb ce 07 be 0b 58 b0 bd
       -0.03532661 -0.12909412 -0.13262479 -0.08610543
0001b0 c8 d0 72 bc 74 02 e1 bd dd b9 da bd 25 c6 1d be
       -0.014820285 -0.10986796 -0.10679982 -0.15407617
0001c0 2c 59 cd 3c c6 59 25 be b9 6b 2e 3d 00 e1 0c be
       0.025066935 -0.16147527 0.0425832 -0.13757706
0001d0 08 6e 45 3d f8 c2 cb 3c 62 fa df bc da 28 19 bb
       0.048200637 0.024873242 -0.027341072 -0.0023370297
0001e0 05 38 20 be 71 d9 5b bc 5e b7 00 be 0a f7 74 bd
       -0.1564637 -0.013418541 -0.12569949 -0.059805907
0001f0 29 99 d8 bc a8 d0 44 bd 45 98 ac 3b 50 51 55 bc
       -0.02644022 -0.048050553 0.0052671754 -0.013019875
000200 ea e9 1a 3d dd 94 8e 3d 31 e1 8c bc ac 72 a0 3c
       0.037820734 0.06961987 -0.017197223 0.01958593
000210 dc ec 8a bd f0 16 65 3d 98 f8 00 bd 11 16 c4 bd
       -0.067834586 0.055930078 -0.031487077 -0.09574521
000220 81 ae 5f 3d 2a 4c 7a bd a8 f5 62 bd a0 bf 81 3d
       0.05460978 -0.061107792 -0.055410057 0.06335378
000230 29 6d 07 3d 43 48 74 39 b1 aa fe bd a8 6d fa bd
       0.033063088 0.00023296573 -0.124349006 -0.122279465
000240 79 2e 05 be fa a9 e5 bd 4c 7f 35 3c 34 bc 41 bc
       -0.13006009 -0.11214061 0.011077713 -0.011824656
000250 db 06 1c 3d a5 f6 6f 3c eb 0e d6 bd 33 6e 44 3d
       0.038092475 0.014646207 -0.10452064 0.047956657
000260 71 ce cc bd ba 53 5d bd 16 6c 81 3d b7 17 d1 3d
       -0.10000313 -0.054034926 0.06319444 0.10209601
000270 76 6f 86 bd b3 e3 71 3b e1 e1 33 bd 05 a7 a0 bd
       -0.06564228 0.00369094 -0.043916587 -0.078443564
000280 6f 26 f0 bd 32 48 ad bd 85 cc c5 bd c3 d0 b9 bd
       -0.117260806 -0.08461036 -0.0965815 -0.09073021
000290 53 92 54 bd 60 80 aa bd 05 0e b5 b9 d3 a9 b1 3d
       -0.05189736 -0.08325267 -0.00034533456 0.086749695
0002a0 ed 87 8d bd 20 dc f0 3d c1 19 46 bc 65 a6 d4 3d
       -0.069106914 0.117607355 -0.012091101 0.103833
0002b0 e3 a9 01 3d 85 90 56 bd 01 0c 91 3c bc 98 cb 3d
       0.031656157 -0.05238392 0.01770592 0.09941241
0002c0 82 51 a2 bc ae 42 92 3d 05 bc ee bd b3 c2 54 3d
       -0.019814257 0.071416244 -0.11656956 0.051943492
0002d0 76 21 c5 bc ed ea b1 3d 94 64 a4 3d f6 65 14 3d
       -0.024063807 0.08687387 0.08026996 0.03623005
0002e0 2a 45 d9 3d 8f 17 d7 bc df 1a c1 3d 4d fa ac bd
       0.10608895 -0.02625635 0.094289534 -0.084461786
0002f0 f0 62 bb bd 30 e4 88 3d 4f cd b9 3c 4f d9 78 bd
       -0.0914973 0.06684148 0.022680907 -0.060754117
000300 f8 c6 bd 3c a0 2d 9a b9 b3 90 a6 3c cc 66 a8 bb
       0.023166165 -0.00029407162 0.02033267 -0.0051392075
000310 bb 25 db 39 c7 05 ad bd 0e 61 56 3d 1d 85 74 3d
       0.00041799046 -0.084483676 0.052338652 0.05969726
000320 dd e5 14 bc 6d 1d b5 3d 40 e8 40 bd 7e c9 ba bd
       -0.009088007 0.08843503 -0.04709649 -0.09120463
000330 fd 5b c8 bd cd 8d df bc d6 be 71 bd b0 cd b1 3d
       -0.0978317 -0.027289296 -0.059019886 0.0868181
000340 ae 1f a7 3d 73 a2 da 3d ca 02 a8 bd 94 97 76 3d
       0.08160339 0.10675516 -0.08203657 0.06020315
000350 7f 2f a9 bc ce d9 08 bd e4 61 52 3d 8e 0b 94 3d
       -0.02065253 -0.03341084 0.051362887 0.072287664
000360 48 7b 96 ba 2b f7 d0 bc 7b a4 9e 3d fa a9 ad 3d
       -0.0011480832 -0.025508484 0.07746216 0.08479686
000370 1b bd bb 3d c9 07 96 3d 57 6d b9 ba 14 2c 86 3d
       0.091669284 0.07325704 -0.0014146966 0.06551376
000380 df 87 0d bd 71 32 5b bd 9e ae 43 3d 62 95 b2 3d
       -0.034553405 -0.0535149 0.04777395 0.08719899
000390 37 92 51 3a 40 62 94 3d 4d 4d 10 3c f8 9a 0f bc
       0.0007994505 0.07245302 0.008807492 -0.008764975
0003a0 37 3c 1d 3c 0f 0c c5 bd e9 0e d7 3c 55 89 be 3d
       0.009596876 -0.096214406 0.026252227 0.09303538
0003b0 f3 39 43 3c ac e1 32 3d ec 78 82 bd 25 98 82 bd
       0.011915672 0.04367225 -0.0637072 -0.063766755
0003c0 34 ab 49 bb 79 d1 bb 3d a9 15 cb 3c 6a 89 ce bd
       -0.003077221 0.09170813 0.024790602 -0.100848034
0003d0 fe 63 00 be 68 90 00 3d 09 e2 d1 bd d3 07 e4 3c
       -0.12538144 0.031387717 -0.10248191 0.027835762
0003e0 ea 89 56 3d 41 94 af 3d 63 ad 80 3d 6c b8 e4 bd
       0.05237762 0.08573199 0.06283071 -0.11167988
0003f0 0a 69 4b b9 7f ae bf 3d dc d9 40 3d be 80 c9 bc
       -0.00019398719 0.09359454 0.047082767 -0.024597522

conv1.bias f4 [6]
000000 13 28 bb 3d 6c 5a bf 3d b7 bd 52 bc 3f 8d f9 bc
       0.09138503 0.093434185 -0.012862614 -0.03046286
000010 7c 66 04 bd 7b 3e ef bd
       -0.0323243 -0.11681839

conv2.weight f4 [16, 6, 5, 5]
000000 34 8a 8d 3d a5 89 b3 3d 0a ec a4 bb 2f 25 84 3d
       0.06911126 0.08766488 -0.005033021 0.06452405
000010 43 34 39 3d 40 a0 6b ba b6 18 c4 3d a1 af 17 3d
       0.045215856 -0.00089884177 0.09575026 0.037032727
000020 60 2a 95 3d d0 96 4c bd 32 63 45 bd c6 59 b4 3d
       0.07283473 -0.049948514 -0.048190303 0.088061854
000030 42 0f fb 3c 84 b1 d7 bc 97 09 35 bc 67 f4 c6 3c
       0.030646924 -0.026329763 -0.01104965 0.024286462
000040 dd b2 f2 3c 81 62 d8 bc b6 76 17 3d 5e 23 b6 bc
       0.029626304 -0.026414158 0.036978446 -0.022233661
000050 d8 3f b9 3d 6c c7 24 bc 9c 55 92 3d 01 48 a3 bc
       0.0904538 -0.0100573115 0.07145235 -0.019931795
000060 49 15 40 b9 80 2d a9 3d 35 e3 4e bd 0c c6 3a 3d
       -0.00018318476 0.082606316 -0.05050965 0.04559903
000070 54 1b bb 3c 64 9c aa bc a6 04 3c 3d ff 9c af 3c
       0.02284018 -0.020826526 0.04590287 0.021437166
000080 eb c4 69 bd 3c 3a 26 3d 60 11 66 bd c4 93 b1 3d
       -0.05707256 0.04058288 -0.056168914 0.08670762
000090 4d 31 45 3c 4f d6 94 bb a0 67 82 3d f2 f7 5e 3d
       0.01203568 -0.004542149 0.06367421 0.054435678
0000a0 fb c7 d1 bc 22 9d 56 bc 82 6f 80 3d f2 fd 92 3d
       -0.025608053 -0.013098987 0.062712684 0.071773425
0000b0 6e 31 b6 3c 55 cb 1c bd 74 71 af bc 8f 69 85 3a
       0.022240367 -0.03827985 -0.021416403 0.0010178554
0000c0 77 90 b5 3d 38 51 96 3d ef eb 54 3d ff 85 69 3d
       0.08865445 0.0733971 0.051982816 0.057012554
0000d0 a4 44 ad bd 8b 62 13 3d 78 3f f9 bb 06 23 b7 bd
       -0.08460358 0.03598265 -0.007606443 -0.08942227
0000e0 56 8e 1f ba 8c 36 4b 3d 9a a6 b4 bd 89 a4 9e bd
       -0.00060865784 0.049612567 -0.08820839 -0.07746226
0000f0 4f d6 32 3d c0 a7 94 bc 7a ff 5a bc 83 4c 69 bd
       0.04366141 -0.018146396 -0.013366574 -0.056957733
000100 d8 54 16 bc b2 83 15 bc 38 61 67 3d e3 21 cd bc
       -0.009175502 -0.009125637 0.0564892 -0.025040573
000110 83 b6 3d bc 3a 7f 95 bd 8b 1e f0 3c df 0a f7 ba
       -0.011579159 -0.07299657 0.029311439 -0.0018847844
000120 53 af ba bb 3d 0c 26 bd 3b b3 84 3c 7a ee 74 3d
       -0.00569717 -0.040539015 0.016198745 0.05979774
000130 70 63 79 3d 08 a2 91 3d ba 31 85 3c 41 b0 6e bd
       0.060885847 0.07110983 0.016259063 -0.058273558
000140 f3 5d 80 bc 9e 9f 07 39 aa 31 02 bc 98 e4 06 3c
       -0.015669798 0.00012934065 -0.007946411 0.008233212
000150 53 6b a0 bd 3b 4b 6c bd 25 f6 25 3d 4f b6 ad 3c
       -0.078329705 -0.057688933 0.040517945 0.021205096
000160 39 93 89 3d e1 27 98 bc 62 3f d1 3b f7 a2 e7 bc
       0.067175336 -0.018573703 0.0063857296 -0.02827595
000170 64 e1 86 3d 11 1d 44 bd 97 1b ca bc 7e 76 fb bc
       0.065859586 -0.047879282 -0.024671359 -0.03069615
000180 a0 64 9a 3a e4 7f 8e 3c de 8c 9b bd be 20 9c bd
       0.0011779256 0.017394967 -0.07595228 -0.076234326
000190 7b 46 c9 3d 42 85 6b 3c 9a 3a 8d 3b b0 f2 31 bd
       0.09827896 0.014375033 0.0043099644 -0.043444335
0001a0 f3 a4 41 3d a9 90 f9 3c d1 45 b9 3d 53 df 10 bd
       0.04727645 0.030464487 0.090465195 -0.03536923
0001b0 30 1d d2 bc 1f 24 b3 bb 3d ed 1a 3d d8 cd 0b 3d
       -0.025648683 -0.0054669525 0.037823904 0.034131855
0001c0 c0 57 ea 3c 0f 93 6e bd b1 bf 9e 3d 20 95 39 bc
       0.028606296 -0.058245715 0.07751406 -0.011327058
0001d0 ad bc a0 bc 0f 56 16 bd 70 f6 38 bd 79 2a 9c 3d
       -0.019621218 -0.036703166 -0.045156896 0.076252885
0001e0 b5 7c 77 3d a8 f5 1b 3d e1 25 81 3d e5 c9 7a 3d
       0.060421664 0.038076073 0.06306053 0.061227698
0001f0 59 37 72 bc 1c 45 a1 3c 86 46 8f bc 1d a0 4a bd
       -0.014783704 0.019686274 -0.017489683 -0.049469102
000200 19 98 3d 3d cf 9d 7e bd cc fc 81 3d 42 bf 7c bd
       0.04628763 -0.062162217 0.06347045 -0.061705835
000210 63 b5 22 bd d2 08 6d 3d 55 a8 25 3b 68 ef 56 bd
       -0.039723765 0.05786974 0.0025277336 -0.05247441
000220 d6 26 85 bd 06 31 9c bd 09 a9 0a bd 44 bc a5 bc
       -0.06501548 -0.07626538 -0.03385261 -0.020231374
000230 50 d6 8e 3d 70 2a 0c bd 3c fb 56 bc 60 75 94 bd
       0.069744706 -0.03422016 -0.013121422 -0.0724895
000240 a1 7c 4a bb da 9a dd 3c ae d7 2d bd 73 04 88 bd
       -0.0030897039 0.027051378 -0.042442016 -0.066414736
000250 e2 74 27 3d eb 30 14 bd 07 41 b6 3c cd e4 9a 3d
       0.040882953 -0.036179464 0.022247804 0.075631715
000260 f2 bc ff 3c e9 e1 db bc 33 29 0f 3d 26 a2 8d 3d
       0.031218026 -0.02684112 0.0349514 0.06915693
000270 6e 76 23 3a 73 c5 83 bd fd d6 42 3d e4 a7 7e 3c
       0.0006235604 -0.06434145 0.04756831 0.015542958
000280 47 5c 94 bd b7 4c e8 3a 99 d1 9a bd eb 45 ff 3c
       -0.07244163 0.0017723058 -0.07559509 0.03116127
000290 e3 60 2d 3d b3 c1 93 bd 4e 38 8f bd 08 3f fb b9
       0.042328727 -0.072146796 -0.06993161 -0.00047921413
0002a0 82 dc a5 bd bf 09 f7 bc 7d e2 45 3d 7e 32 99 bd
       -0.08098699 -0.030156014 0.0483117 -0.07480334
0002b0 03 29 7f bd bd a6 50 3d 34 3b 34 bc 62 18 31 bc
       -0.06229497 0.050940264 -0.011000443 -0.010809036
0002c0 11 fa 99 bd 6b 62 92 bd b0 c0 8f 3d f9 84 81 3d
       -0.075183995 -0.07147678 0.07019174 0.06324191
0002d0 a7 43 10 bc c5 6e 4c bd 45 2a 03 bd 40 39 a9 3c
       -0.008805192 -0.049910326 -0.032022733 0.020657182
0002e0 62 e4 1e bd b5 b9 19 bc 8d 7c bb bc 6b 04 a3 bd
       -0.03879202 -0.009382655 -0.022886539 -0.07959827
0002f0 6c 73 89 bd c4 bd 12 3d ad d7 9f bd 6c fd 67 3d
       -0.06711468 0.035825506 -0.07804809 0.056638166
000300 00 a8 14 3d 6d ae a3 bd 79 2b a1 bc 13 2a 18 39
       0.03629303 -0.079922535 -0.01967405 0.00014511523
000310 00 e1 a6 bd e9 24 c1 bc ad 6a 9b 3d 45 a4 70 3d
       -0.08148384 -0.02357717 0.07588706 0.05875041
000320 d5 91 2a bd 42 03 df 3c 54 f5 92 3d fb c0 a6 bd
       -0.041642983 0.027223233 0.07175699 -0.08142277
000330 71 e9 41 bb 02 32 83 3d 43 f9 1a bb 32 fe 6a bd
       -0.0029588605 0.064060226 -0.0023647107 -0.057371326
000340 af 09 82 bd 8b 26 1a 3d 11 5b c4 bc 57 b5 b5 3c
       -0.06349503 0.037634414 -0.023969205 0.022181196
000350 65 d9 66 3b a3 1b f3 bb 22 ab 15 3d 5a 4f 39 bc
       0.0035224792 -0.007419066 0.036540158 -0.011310423
000360 04 20 c8 bc e0 0c 11 3d fe 24 00 bd 38 78 c4 bc
       -0.024429329 0.03541267 -0.03128528 -0.023983106
000370 d0 23 6a bc bb 30 5a bd de 27 8a bd 89 fd 8e bd
       -0.014290765 -0.05326913 -0.06745885 -0.06981952
000380 dd 27 29 bd 3a 2e ec bb 17 56 c7 bc b8 a8 f4 3c
       -0.041297782 -0.007207659 -0.024333043 0.029865608
000390 1e e1 89 3d d4 ee 71 bd b3 5c 07 bd 70 49 ab bd
       0.06732391 -0.059065655 -0.03304739 -0.083636165
0003a0 04 a4 9e 3c 48 9c 2a 3d ab 10 50 3d fc e2 9f bd
       0.019365318 0.041652948 0.050797146 -0.07806966
0003b0 1a 1e 9b bd db 1a 71 3c c3 47 4c bd ce 2b a8 3c
       -0.07574101 0.0147158755 -0.049873125 0.0205287
0003c0 c7 dd 7c bd 50 bf 7b 3d 25 c0 8e bd bc e8 5c bd
       -0.06173494 0.061461747 -0.069702424 -0.05393289
0003d0 b7 3a a1 bb e0 62 46 bc d7 b3 af 3c 2d 44 f7 bc
       -0.0049203294 -0.012108535 0.021448059 -0.030183876
0003e0 58 e7 5f 3d cc da 46 3d ee d4 5c 3d 7c 2f 1d bd
       0.054663986 0.048548505 0.053914003 -0.038375363
0003f0 7e 55 34 bd 62 a6 1e 3a 67 8b e0 bc 78 e6 29 bd
       -0.044026844 0.00060520147 -0.027410222 -0.041479558

conv2.bias f4 [16]
000000 a1 d7 c3 3d 02 09 8e bd e5 c4 39 bd 14 21 9b 3d
       0.09562612 -0.06935312 -0.04535379 0.075746685
000010 b3 de dc bc 66 61 d9 bb 99 9d c0 3d 10 3b 96 bd
       -0.02696166 -0.0066339253 0.09405059 -0.07335484
000020 69 4c 7c 3d b6 7c ac bb 47 f9 a2 bc 86 80 18 bd
       0.061596308 -0.00526389 -0.019894255 -0.037231945
000030 37 c5 c0 bc 22 6a 5d 3d 19 0f 93 bb 31 59 c9 3d
       -0.02353154 0.054056294 -0.0044878838 0.09831465

fc1.weight f4 [120, 400]
000000 79 36 61 3d 5e ec 41 3d d0 74 1a 3d 0a 5e 70 3c
       0.05498359 0.047344558 0.037709057 0.014670858
000010 78 92 2e bc cd 9b 4e 3d 54 ea 88 3d 3e 82 0a 3c
       -0.010655038 0.050441552 0.066853195 0.008453904
000020 7b 8f 7a bb e0 ca d4 3c 14 a5 0c 3d ea 11 e7 3c
       -0.0038232494 0.025975645 0.03433712 0.028206784
000030 5e a9 93 3d 1b 69 57 3d 82 0f 3b 3b ac c3 8c 3d
       0.072100386 0.05259047 0.002854318 0.06873259
000040 fe 53 cc 3b 88 7f 7d 3d bc 72 a0 3d 3c d1 ed 3c
       0.0062355986 0.0618892 0.07834384 0.029030435
000050 bc 90 16 3d 6b 46 2d 3d 0e a4 2e bc af 20 8c 3d
       0.036759123 0.042303484 -0.010659231 0.068421714
000060 7d 6d ec bc b3 aa b4 bb 9a 05 91 3a 33 79 50 bb
       -0.028860802 -0.005513513 0.0011064291 -0.0031810522
000070 52 70 1b 3d da 6a 57 bc 53 3e 4b bc d3 c2 3d 3c
       0.037948914 -0.013148034 -0.012404996 0.011582094
000080 1b 03 02 bd 3a 50 f6 bc 67 25 9a ba 13 b7 8d 3c
       -0.031741243 -0.030067552 -0.0011760414 0.01729921
000090 c0 e8 e1 3b fa dd 37 bd 5a e0 d9 bc c0 08 3d bd
       0.006894201 -0.044889428 -0.026596237 -0.046150923
0000a0 90 64 89 3c 23 4e 0e bd cd e0 b2 b9 7f 9a 09 3d
       0.016771585 -0.034742486 -0.00034118295 0.033594605
0000b0 f7 9b aa 3c 93 54 2a bc e0 e2 bb bc 40 bc 1b 3d
       0.020826323 -0.010396141 -0.02293533 0.038021326
0000c0 07 6e 58 3c 87 91 26 3d c7 e2 96 3c 42 1f 5c bd
       0.013209826 0.04066613 0.018418683 -0.053740747
0000d0 f8 c6 36 bd 7e fa b2 3c 25 c3 e4 3a 2f 77 94 3c
       -0.044623345 0.02184796 0.0017453177 0.018123237
0000e0 68 c9 46 bd cf fa df 3c 01 a1 9e 3b f6 cc 20 bd
       -0.04853192 0.027341275 0.0048409705 -0.039257966
0000f0 d1 94 74 bc a6 70 21 bc 31 44 89 bc ba be 5e 3d
       -0.014928059 -0.009853518 -0.016756149 0.05438111
000100 e0 1e 48 3c 23 74 41 bc 5c c9 49 bc 01 4a ab bc
       0.012214392 -0.011807474 -0.012316074 -0.020909311
000110 c8 e2 85 39 d7 bf 05 3d b8 9a d5 bc fc d4 cb 3c
       0.00025536702 0.032653656 -0.026074752 0.024881832
000120 e3 f1 0e 39 8e b4 b9 3c 46 79 50 3a ea cc 4f 3d
       0.00013632285 0.022669103 0.00079526415 0.05073253
000130 f9 88 08 3b ff 4d 54 3d 55 5d e2 bc 34 66 50 3d
       0.0020833595 0.051832195 -0.027632395 0.05087872
000140 06 db 33 3d 4e 07 5f 3d f5 18 32 3d 01 53 f8 bb
       0.04391005 0.054450326 0.043480832 -0.007578254
000150 f9 0d 80 bc 98 a4 57 3c a0 33 98 bc ca 0a 77 bc
       -0.015631663 0.013161801 -0.018579304 -0.015078256
000160 cb 53 d0 bb bf c1 28 3d a8 80 94 bc e0 c3 ac bc
       -0.006357645 0.041200396 -0.018127754 -0.021089494
000170 c7 68 d2 bb 22 b8 7d 3d f2 5c 48 3d a1 80 4d ba
       -0.006421182 0.06194318 0.048916765 -0.00078392966
000180 5c a4 b9 bc a7 fd 66 3d dc 91 03 3d 9f ca 89 3c
       -0.02266138 0.056394245 0.032121524 0.01682025
000190 6f 12 0d bd f2 bf 40 3c b1 4e 09 3d 8b 27 6a bc
       -0.034441408 0.011764513 0.03352231 -0.014291654
0001a0 43 07 d3 3c 9d 67 68 3d cb 6e 78 3c 8b 82 c1 3b
       0.025760299 0.05673944 0.015163134 0.0059054545
0001b0 35 ed 72 bb e3 9f 99 3a 84 ff 59 3d 4a f0 ce bc
       -0.0037067656 0.0011720624 0.053222194 -0.025261063
0001c0 78 92 17 bd d0 77 30 3d e7 f2 2a bc fd da 03 3d
       -0.037004918 0.043083012 -0.010433889 0.032191265
0001d0 03 db 91 bc 2e 50 a9 3c 42 f1 56 3b ba d8 c9 bb
       -0.017804628 0.020668115 0.003279761 -0.006159869
0001e0 0d 0d 1f 3d 75 37 64 3d 7b 1c 08 bd e1 9e a8 bc
       0.038830806 0.05571695 -0.033230286 -0.020583572
0001f0 2b 00 34 3d 5a b7 31 bd e6 ab a6 bc 83 d3 aa bb
       0.043945473 -0.04338775 -0.02034564 -0.0052132024
000200 f6 95 49 bd 6c 20 31 3d 7a 99 cd bb 40 a9 5d bd
       -0.04921528 0.04324381 -0.0062743993 -0.054116488
000210 2f 28 9b bc f1 83 be bc 9f d6 d7 bc 2d 99 96 3c
       -0.01894006 -0.023256274 -0.026347456 0.018383587
000220 c5 ab 0a 3d 91 1d 35 bd 3a dd b6 bc aa 39 94 bb
       0.03385522 -0.04421765 -0.022322286 -0.0045234757
000230 ad 6e dc bc 82 0c 3f 3c 82 57 a0 3c 41 a0 ac 3c
       -0.026908243 0.011660697 0.019572977 0.021072509
000240 73 dc 3e bd d1 5b 20 bd 8c 2b 2e 3c 24 f9 5d 3c
       -0.046596956 -0.039150063 0.0106305 0.013548169
000250 2e 40 20 3d 0b ad 37 3c 46 db 91 3d e5 12 00 bc
       0.039123707 0.01121069 0.07121901 -0.007817005
000260 34 42 03 bc 2d 6b a6 3c 5f 44 f4 bb 8b 10 1f 3d
       -0.0080113895 0.020314777 -0.0074544395 0.038834136
000270 cc a4 a8 3d 49 e8 79 b9 5d 41 3c bc f3 38 78 3d
       0.082345575 -0.00023833023 -0.011490193 0.060601186
000280 62 3f 86 3d ce ef a4 3c b6 38 af 3d b2 16 6d 3c
       0.06555058 0.020133879 0.08555739 0.014470743
000290 dd 7d e1 3b ae b0 4e bc ea 54 77 bc 7a c3 33 3c
       0.006881459 -0.012615366 -0.015095929 0.010971898
0002a0 f8 b2 e0 3c ec 4e 9b 3d 8f f1 8f bc ee b8 57 3d
       0.027429089 0.075834125 -0.017571239 0.052666597
0002b0 48 18 97 3d 8d 75 1c 3d dd 58 ee bb cc 78 b3 bc
       0.07377678 0.038198043 -0.007273777 -0.021908186
0002c0 ef 0b 86 bd aa f0 ea bc a7 4c e2 bc 15 a7 0c bc
       -0.06545245 -0.02867921 -0.027624441 -0.008584757
0002d0 89 2c c3 3a ee 98 48 3c 5a ec c4 bb e6 16 29 bc
       0.0014890592 0.0122434925 -0.0060096206 -0.010320401
0002e0 ee d8 8e bd 4d 58 1c bd 19 7e 83 bd 0e 82 42 bd
       -0.0697497 -0.038170148 -0.064205356 -0.04748731
0002f0 2d f1 c5 bc 08 c6 5e bd 6a 28 11 bd b7 28 61 bd
       -0.024162853 -0.054388076 -0.035438932 -0.05497047
000300 04 46 1f bd f6 59 1c bd a7 60 83 bd b4 63 69 bd
       -0.03888513 -0.03817173 -0.06414919 -0.05697985
000310 76 5c c7 bc 35 ac e2 3c db c4 5a bb 9c 91 1f 3c
       -0.024336081 0.027670005 -0.0033381495 0.009739306
000320 07 78 ec bc ed cf 04 bd 50 71 96 3c 1c ff d9 3b
       -0.028865827 -0.032424856 0.018364578 0.006652726
000330 9c 4d ee bb cd 53 7e 3b 7d 00 2c bd e9 b2 6c 3b
       -0.0072724354 0.0038807273 -0.041992653 0.003611738
000340 fd b4 d1 bc de ac 05 3c 64 6a 9f 3c bf 4d b0 3c
       -0.025598997 0.0081588905 0.01945991 0.021521447
000350 34 3a 43 3c 01 3d 6b 3c dd f2 b9 bc 30 88 47 3d
       0.011915732 0.014357806 -0.022698814 0.048713863
000360 8a e3 ff 3c 6b 9f 31 3d 92 09 0f 3d 57 e5 2d 3d
       0.031236429 0.043364923 0.034921236 0.042455044
000370 1b 7f 54 3d 8f be 69 3d da 09 55 bc c2 3c 9b bc
       0.05187903 0.057066496 -0.013002837 -0.01894987
000380 14 bf 96 bc d4 24 36 bd cc 06 61 bb de d4 46 3d
       -0.01840166 -0.044468716 -0.0034336327 0.04854285
000390 92 3d 36 bd 16 de 40 3c c4 61 e1 bc 85 73 29 bd
       -0.04449231 0.011771699 -0.027512439 -0.041369934
0003a0 6a 0e 4d 3d 3e dc 87 3c 4c 63 38 3d 98 b8 73 bc
       0.050062574 0.016584512 0.045016572 -0.014875554
0003b0 10 73 32 bb 7d b1 2a 3d 11 4b 3b 3d 1c 28 82 bc
       -0.0027229227 0.041673172 0.045725886 -0.015888266
0003c0 82 5b 39 3d 83 c0 5d 3d ba 61 40 3d 32 3e f9 bc
       0.045253284 0.05413867 0.0469682 -0.030425165
0003d0 13 77 ea bc 1a 1f a1 bc 88 dc 01 bd 45 18 58 3b
       -0.028621232 -0.01966815 -0.031704456 0.003297345
0003e0 ab 80 3f 3b 53 81 74 3c 83 e6 4b bd af ee 9a 3c
       0.002922098 0.014923411 -0.04978038 0.018912641
0003f0 2a d3 e6 3b d3 76 02 3d ca 3a 68 bc af e5 10 bd
       0.0070442157 0.0318516 -0.014174173 -0.035375293

fc1.bias f4 [120]
000000 a7 2a 31 3d 2e 6d 4a bd 98 08 f7 bc 3a 7f 82 3c
       0.043253567 -0.049420528 -0.030155465 0.015929807
000010 e7 0c 20 bd 42 68 98 3a 80 f5 c3 bc bf 81 7d 3c
       -0.039074805 0.0011627751 -0.023920774 0.015472828
000020 63 5d 1d bd 1e 5b 0c bb 05 15 71 bd bf 15 65 bd
       -0.03841914 -0.0021416615 -0.058857936 -0.05592894
000030 f1 8e 93 bc 8c 57 a5 3d 00 78 64 3c 76 47 12 bd
       -0.018012496 0.08073339 0.013944626 -0.03571268
000040 ea 40 0d bd ec 0e 69 3d 62 ce 5d bc 15 99 7e 3c
       -0.034485735 0.056898996 -0.013537975 0.015539427
000050 bf 78 d4 3b 4c 81 31 3c f3 b9 e7 3b 15 8b 03 3d
       0.0064841206 0.010834049 0.0070717274 0.03211506
000060 d7 b1 b2 bb 71 e2 d6 3c 1a 22 1e 3b c9 82 b0 bb
       -0.005453329 0.026231023 0.0024129213 -0.0053866846
000070 9a 92 4c bd f7 bf 2d 3b 86 74 52 3d 5f 84 6a 3c
       -0.049944498 0.0026512125 0.051380657 0.014313786
000080 fc 64 df bc c0 7c 44 3d d5 cd 18 3c 91 8d 3d bb
       -0.027269833 0.047970533 0.009326418 -0.0028923491
000090 b3 c8 79 3c 29 e6 ed 3c 40 56 a5 3b a6 e5 9c 3c
       0.015245604 0.029040413 0.005045682 0.019152474
0000a0 17 9a 4b bd d7 75 49 bd a7 3c 8e 3d 36 c0 b5 bc
       -0.0497075 -0.049184646 0.06945162 -0.02218638
0000b0 97 42 1b 3c 1e 10 42 bd e5 2c 8d 3d 90 4f 23 3b
       0.0094763255 -0.04737865 0.068933286 0.002491925
0000c0 64 b7 1d bc a0 e1 bc 3c 4f 8e 2b 3d 55 ee b8 bb
       -0.009626243 0.023056805 0.041883763 -0.0056436458
0000d0 98 b2 20 bd f1 ac 1f bd 57 f2 49 3c 01 54 82 3d
       -0.03923282 -0.03898329 0.012325845 0.06363679
0000e0 ac 6d d5 bc 54 c7 26 3c 83 90 9d bc 6b 32 a9 3c
       -0.026053272 0.0101793595 -0.019233948 0.020653924
0000f0 db 1e 77 3d c1 8b 96 bc 8d 4f 70 bc f6 81 cb 3c
       0.06033216 -0.018377187 -0.014667404 0.024842244
000100 a9 72 3e 3d 01 93 dd 3c b8 0f 8a 3d c7 41 a6 3c
       0.046496067 0.027047636 0.06741279 0.020295037
000110 02 5e 93 3d 96 16 ed 3c 9c b5 46 bc 17 84 98 bc
       0.07195665 0.028941434 -0.01212826 -0.018617673
000120 c7 fa 0f 3d fa 82 6c bd de a0 2d 3d 67 bf 25 bd
       0.03515127 -0.057742096 0.042389743 -0.04046574
000130 ac 5a 34 b9 c6 46 e2 3c a9 68 27 3d a0 7a 0c 3d
       -0.00017199916 0.027621638 0.040871296 0.03429663
000140 49 5f 6b bd 6d ee 2f 3d e4 60 f5 bb 6f ad 84 3c
       -0.057463918 0.04295199 -0.007488357 0.01619598
000150 86 0b a6 3b af 24 b3 bc a1 f5 8c 3d f2 33 47 bc
       0.0050672917 -0.021868078 0.068827875 -0.012158381
000160 0a c6 95 bc 68 29 56 3c 83 fd 43 bd 84 6b 04 bb
       -0.018282909 0.013071395 -0.04784919 -0.0020205686
000170 ac b8 77 bd 6d 66 18 3d dc ce 79 3b 3d 98 14 3c
       -0.06047885 0.037207056 0.0038117683 0.0090695
000180 ca 91 64 bb 54 6a 77 bc b2 50 44 bc 08 77 a2 3c
       -0.0034876936 -0.015101034 -0.01198213 0.01983215
000190 f7 47 6c 3c f5 f6 3a bd e7 98 2d 3d 9e 92 f0 3b
       0.014421455 -0.045645673 0.042382147 0.007341697
0001a0 c0 6c d5 3b 4d 6c e7 bc 5d 29 8e 3b 46 42 9f bc
       0.006513208 -0.028249884 0.004338427 -0.019440781
0001b0 f5 73 ee bc fe ac 31 3d 11 3e 53 bc 21 8e 53 bc
       -0.029108027 0.04337787 -0.012893216 -0.012912304
0001c0 44 07 1e bd 7c 97 8b 3d d7 6e 30 bc 16 32 29 3d
       -0.038581148 0.06816003 -0.010768614 0.04130753
0001d0 0b 4b 12 bc 4f 1e 86 3d 77 2e 0b 3c 43 2c 58 3d
       -0.008929024 0.0654875 0.008494965 0.052776586

fc2.weight f4 [84, 120]
000000 a0 7d 01 3e 67 b5 b6 bd 73 be 4e 3d 9d cf 78 3c
       0.12645578 -0.089213185 0.050474595 0.015186218
000010 94 43 27 bc e8 61 d0 3d f7 51 d7 3d b2 01 53 3d
       -0.010208983 0.10174924 0.105136804 0.05151529
000020 a8 87 d9 bc 1e 48 08 3d 7b ce bb 3c 7d 8b 5a bd
       -0.026553944 0.0332719 0.022925606 -0.053355683
000030 25 28 a6 3d f6 91 29 3d 3a 37 01 bd 6e 2b db 3c
       0.08113126 0.041398965 -0.03154681 0.026754107
000040 cf 2a 5d 3c 34 51 62 3d e6 d3 03 3d dc 15 b1 3c
       0.013498976 0.055253223 0.032184504 0.021616869
000050 5a 43 84 3c 74 3a 39 3d 51 dc fd 3b f3 59 5c bc
       0.016145397 0.04522176 0.007747211 -0.01344918
000060 76 ca a5 3d 1e 2c 81 3d 6c 88 cc 3d b6 34 d9 bc
       0.08095257 0.06307243 0.09986958 -0.026514392
000070 3b 0e 4d 3d 89 16 e6 3d 5a 38 e8 3d fa 1a 96 3c
       0.0500624 0.11234767 0.11338873 0.01832341
000080 a9 86 47 3d 3d 9b 21 3d f1 fb c1 3d 53 d4 e1 3d
       0.048712406 0.039454687 0.09471882 0.11026826
000090 ac 67 cd 3c f2 1a 27 3d 74 0f d0 3d b8 ba 9f 3d
       0.025073849 0.04079718 0.101591974 0.07799286
0000a0 a7 13 1a 3b 83 d0 7b bd 99 f9 f2 bc fe a8 99 bd
       0.002351025 -0.06147815 -0.029660033 -0.07502936
0000b0 8d cd 58 3b c8 bd 00 3d 13 16 b6 3d 3e c5 ae bc
       0.0033081502 0.03143099 0.08890929 -0.021334287
0000c0 0a 81 96 3d bc ad 37 bc 24 bb b3 3c d7 71 99 3b
       0.07348831 -0.011210855 0.021939822 0.00468276
0000d0 86 0e 8a bc 57 e1 1e 3d 6b 15 f3 ba 4b 50 88 3d
       -0.016852628 0.03878912 -0.0018545812 0.0665594
0000e0 f5 e1 47 bd 71 26 b4 3c 1e 70 b4 bd 71 a6 38 3d
       -0.048799474 0.021990987 -0.08810447 0.045080606
0000f0 01 0f 9a bc 7e eb 3f 3d 4e 29 64 bd 45 7c 1e 3e
       -0.018805983 0.046855442 -0.055703454 0.15477093
000100 4f 47 f9 3d 3d 1b 0d 3d ed 4d 24 3d 61 40 8a 3c
       0.12171804 0.034449805 0.04011338 0.016876401
000110 d6 b3 f5 3b 37 31 fd 3c 45 77 65 bd 1e a7 c7 3c
       0.0074982448 0.030907257 -0.056021947 0.02437168
000120 3f af 09 bd 39 f7 8c bc 9a a4 9d 3d 57 94 2d bd
       -0.033614393 -0.017207729 0.07697411 -0.042377796
000130 89 7d 0b 3d 22 95 ae 3d cd fe ad bd c9 6e 90 3d
       0.034055267 0.085245386 -0.08495865 0.070523806
000140 83 45 a7 bd 70 5c 53 3d bb 94 c7 3d 7f ad 84 3b
       -0.08167555 0.051601827 0.09745165 0.0040490027
000150 09 b3 14 3e d9 a0 e2 3d e1 5e 8c bd 3c eb 0c bd
       0.14521421 0.110658355 -0.06854034 -0.034404024
000160 6a 43 a9 3d 76 05 8c 3c 3f 9c 90 3d 63 da 9a 3d
       0.08264811 0.017092448 0.070610516 0.07561185
000170 c8 07 9b bd d1 86 e7 bb 29 84 16 3e f9 9b 81 3d
       -0.075698435 -0.007065632 0.14698853 0.063285775
000180 dd 51 ee bc 9f 97 89 bd 04 99 81 bc ad 36 68 bd
       -0.02909177 -0.067183726 -0.015820034 -0.056692768
000190 1a 55 d7 3c 53 a9 05 3d 29 8d cc 3d 1d 1e 83 bd
       0.026285697 0.032632183 0.09987862 -0.06402228
0001a0 7a 0e ab bd 80 10 a2 3d 6d c2 17 3e 52 6c 22 bd
       -0.083523706 0.079133034 0.14820261 -0.039654084
0001b0 ff ea db bc a3 57 c6 3d 3d 28 84 bd c3 95 9d 3d
       -0.026845453 0.09684684 -0.06452987 0.076945804
0001c0 89 e9 95 3d fe 85 14 3e 6f 16 ba 3d 05 ee 11 3c
       0.07319934 0.14504239 0.0908631 0.008906846
0001d0 a6 ff b0 39 e5 63 7b bd da f9 90 3c 6c fb cc 3c
       0.0003375981 -0.061374564 0.017697264 0.025022231
0001e0 8f 4d 36 3d 57 35 d7 3c 5b fe 18 3b e3 04 1b 3d
       0.04450756 0.026270552 0.0023344967 0.037846457
0001f0 a4 d1 92 bd 47 03 09 bc bb a1 97 bd c7 2a 98 3d
       -0.07168892 -0.008362598 -0.074038945 0.07430034
000200 14 32 15 3d a3 66 87 3c ff 3c 14 bd 64 a3 c2 3c
       0.03642471 0.016528433 -0.036190983 0.023759551
000210 ed 6b d0 bc 32 0c 92 bc 28 f4 c3 3d 32 78 b5 3d
       -0.025442088 -0.01782808 0.095680535 0.08860816
000220 7e 3b 32 bd 38 03 2c 3d 7b 62 46 bc 27 e9 51 3d
       -0.043513767 0.041995257 -0.0121084405 0.051247742
000230 ff 75 b2 bc 55 70 77 bd d6 74 be 3d 6f d0 88 3d
       -0.02178478 -0.060409863 0.092996284 0.066803806
000240 5b f3 93 3d 32 15 0f 3d 32 5a ab bd 3e 95 96 3d
       0.07224151 0.034932323 -0.08366813 0.073526844
000250 ae 47 41 bd 65 45 7f bd 69 ec 9c bd ec 92 e2 3d
       -0.0471875 -0.06232204 -0.07662279 0.110631794
000260 83 30 53 3d c2 eb 40 bc ae 7d b6 bd 6e a3 a2 bd
       0.051559936 -0.011774959 -0.0891069 -0.07941328
000270 de 44 62 3c 2b 6d af 3d 36 21 31 3c 01 29 41 bd
       0.0138103645 0.08565744 0.010811141 -0.047158245
000280 2b 70 ab 3d a6 f1 88 3d 79 15 81 bc e6 e4 95 3d
       0.08371004 0.06686716 -0.01575731 0.073190495
000290 b0 58 80 bd 11 d7 90 3d f1 56 ce 3d 46 49 2a bc
       -0.06266916 0.07072271 0.100751765 -0.010393446
0002a0 25 c4 1f bd ac 39 2d 3d 97 59 f1 3d d2 0b 22 bd
       -0.039005417 0.04229133 0.11784666 -0.039562054
0002b0 96 22 ef bc 01 b8 a8 3c ee 3d 69 bd ef 40 b9 3c
       -0.029191297 0.020595552 -0.056943826 0.02261397
0002c0 23 28 dd ba ad 02 fe 3b f8 66 5f 3c 5b e7 d5 3d
       -0.0016872924 0.007751784 0.0136353895 0.10444518
0002d0 fa 57 4c bd c7 aa 26 3d 3f e6 44 bd 66 f4 f0 3c
       -0.04988859 0.04069021 -0.048071142 0.029413413
0002e0 8c 44 02 bb f2 e6 76 bc a8 c4 10 3d 7a 6c 29 3d
       -0.0019877283 -0.01506971 0.035343796 0.041363217
0002f0 f5 6b a3 bd 87 c5 a5 bc 58 23 04 ba 61 17 d3 bc
       -0.079795755 -0.02023579 -0.0005040667 -0.025767984
000300 90 99 9d 3d da 89 23 bd 54 83 73 3c e6 90 36 3c
       0.07695305 -0.039926387 0.014862854 0.011142945
000310 cb d7 81 bd fb 79 cb 3d 01 8f e9 3d 0d 4d c1 bd
       -0.06339987 0.09935375 0.11404229 -0.094385244
000320 a5 a8 86 3a 8b 93 a1 bd e6 54 67 bd ee ff 84 bd
       0.0010273649 -0.0788947 -0.05647745 -0.06494127
000330 c8 7e 27 3d 26 25 4c bd 2c ed ca bc 60 c0 b4 bd
       0.040892392 -0.049840115 -0.024771295 -0.08825755
000340 f6 af 19 3c a4 6d a0 bb 1b 64 76 bd 24 c9 6e bc
       0.009380331 -0.0048958827 -0.06015406 -0.014574323
000350 aa d0 bb 3d 02 13 77 3d 32 8b a0 bd 1b 3e d4 3c
       0.09170659 0.06032086 -0.078390494 0.02590852
000360 b1 44 9f 3d 44 a8 71 3c f6 17 f1 3b 67 79 2f 3d
       0.07776774 0.01474959 0.0073575927 0.042840388
000370 e4 4e aa 3d ed 7d 28 3c 76 48 b5 3c 33 00 35 bd
       0.083158284 0.010283929 0.022129279 -0.044189643
000380 7c ee 6b bd f2 7d 0a bd b2 16 a6 3d a8 28 a5 3c
       -0.057600483 -0.033811517 0.081097975 0.020160988
000390 c0 9a 7d bd 69 85 34 3d 88 49 88 3d 28 7f d5 3c
       -0.06191516 0.044072542 0.0665465 0.02606161
0003a0 a4 b4 8d bd d1 0c 99 3a 65 51 e7 3b ca 0b 05 bc
       -0.0691922 0.0011676793 0.0070592635 -0.0081204865
0003b0 01 31 b6 3d 78 f1 dd 3d 00 37 46 3d 51 a2 b4 bb
       0.088960655 0.10837072 0.048392296 -0.0055125137
0003c0 db 29 09 3e 0f 46 d2 3b bc 0a cd bc 51 b6 37 3b
       0.13394873 0.006417043 -0.025029533 0.0028032253
0003d0 8a e4 3b bc f9 da 6a 3d 4a c3 ba 3d b5 05 2a bd
       -0.011468062 0.057337735 0.0911928 -0.04150935
0003e0 d1 ae 93 3b 25 b8 36 3d e5 11 f5 3c 32 bb 7e 39
       0.0045069237 0.044609208 0.02991576 0.00024293063
0003f0 c5 4c 68 3b 24 94 0f 3e bf 12 40 bd c8 d4 fc 3c
       0.0035446149 0.14021355 -0.046892878 0.03086318

fc2.bias f4 [84]
000000 9e c7 3e 3d f8 f4 7b bc 68 0c 84 3c 11 2f 36 bb
       0.04657709 -0.015378229 0.016119197 -0.002779905
000010 2d 4b ae bd ea 60 a5 3d 3b 35 56 3d 31 e1 e8 3c
       -0.085104324 0.080751255 0.05229686 0.028427692
000020 ee bf a7 3d 7f e6 b9 3b 96 07 67 bd e6 63 f3 3c
       0.081909046 0.005673229 -0.05640372 0.029710721
000030 f0 98 15 3c 15 eb 3d bc c0 11 d5 bc 1d 8c 76 bd
       0.009130701 -0.011591692 -0.02600944 -0.060192216
000040 25 83 15 bd af 92 58 bd b3 b2 79 3d 61 40 05 3d
       -0.036502022 -0.052874263 0.060961436 0.0325321
000050 0e dd 30 bd ba 7f 75 3b 83 fc be 3c 4f db 86 bd
       -0.043179564 0.0037460164 0.023313766 -0.065847985
000060 7e 0c 1d 3d 38 35 8b bb c1 f9 e4 bc 1c bc 23 b9
       0.03834199 -0.0042482875 -0.027951123 -0.00015614968
000070 1a b1 8b 3c c5 aa a8 bd 04 2f ba bc f1 4e 84 bd
       0.017052222 -0.08235697 -0.022727497 -0.064603694
000080 c7 bc dd 3b 6c 2a 82 bd ed 8a e5 bc f4 9f f6 3c
       0.006766889 -0.063557476 -0.028020347 0.030105568
000090 c3 2b bf bc c2 41 05 bc 92 f2 82 bd e1 74 11 3b
       -0.023336297 -0.008133354 -0.06393923 0.002219491
0000a0 ba af e5 bc 6f 04 0a 3c 06 9c c0 3d 5d 06 48 3d
       -0.028037895 0.008423909 0.09404759 0.048834193
0000b0 f3 4f d6 3d 7f 12 6a bc fe 07 04 bc eb 02 41 3c
       0.10464468 -0.014286636 -0.008058546 0.011780481
0000c0 72 bf 97 3a 1b 6f 16 bd 3f 24 f9 3a d7 92 4d 3d
       0.0011577441 -0.036727052 0.0019007995 0.050188866
0000d0 9f 38 92 3c 64 08 27 3d 8a d9 a5 3d 12 ca 24 bb
       0.017849265 0.040779486 0.08098133 -0.0025144857
0000e0 cb 64 7e bd 5e f8 68 bc 62 06 b1 3c b4 70 89 3d
       -0.062107842 -0.014219372 0.021609489 0.067109495
0000f0 26 9a 27 bd 2d f4 a0 bd 94 35 a0 3c 78 53 b7 bc
       -0.04091849 -0.07859073 0.019556798 -0.022378668
000100 ed 78 8c 3d ba b0 82 3d d4 15 83 3c 96 08 75 bd
       0.06859002 0.06381364 0.01600162 -0.05982264
000110 cb b5 a7 3c 0a 16 20 bd ad 36 50 bd 01 91 b4 3c
       0.020472428 -0.039083518 -0.050833393 0.0220418
000120 c0 ec f6 bc e3 be 3d bd 71 84 8f bc f3 01 9a 3d
       -0.030142188 -0.046324622 -0.017519208 0.07519903
000130 77 12 c0 3d cb b2 99 bc 34 a4 29 3d fc 15 a8 bd
       0.09378522 -0.018762013 0.041416362 -0.08207318
000140 4a 8f 1f 3d de b0 89 ba d2 ad 6b 3d 1c 70 c6 3c
       0.03895501 -0.0010504981 0.057538815 0.02422338

fc3.weight f4 [3, 84]
000000 f4 99 a6 bd 5e 8a 64 bb 21 89 15 be 31 0f e9 3d
       -0.08134833 -0.0034872512 -0.14603092 0.11379851
000010 99 39 b2 3d 35 cf a8 3d 81 0d d1 3d f0 b7 af 3d
       0.08702392 0.082426466 0.10207654 0.08580005
000020 2b 01 9c 3b b6 b2 d4 3c c1 e8 04 be 9f 0c 94 3d
       0.0047608814 0.025964122 -0.12979414 0.0722897
000030 bb 17 4e bd 25 89 16 be 6a 58 9b bc 07 e4 d2 bd
       -0.0503156 -0.14700754 -0.018963058 -0.10297399
000040 a4 c9 1c bd fb ec 6a 3d 5b 11 d5 3d ff bd 6d 3d
       -0.038278237 0.05735491 0.10403701 0.058042523
000050 dc 97 1e bb d4 f6 39 3c 6b b5 0d be c3 9c c7 3c
       -0.0024199402 0.011350352 -0.13838737 0.024366742
000060 c8 c9 97 3d a9 c7 ca 3d 38 6c 04 3e 87 68 d1 bc
       0.074115336 0.099013634 0.12931907 -0.025562538
000070 9e b4 07 3e f1 fe 7e 3d 28 95 fc bc 4d 3b e0 3d
       0.13252494 0.06225485 -0.030832842 0.10948811
000080 94 59 7d 3d c0 ca 77 bb 12 b2 c0 3d d8 ff f7 3c
       0.061853006 -0.0037810057 0.09408964 0.030273363
000090 ff 05 6d bd ff 47 86 3d 1c dc 9d 3d 27 df c5 3d
       -0.057867046 0.06556701 0.07707998 0.096617036
0000a0 b5 43 ac 3d b9 00 b9 bd 75 da 07 be 47 02 93 bd
       0.084113516 -0.09033341 -0.13266928 -0.07178169
0000b0 35 5b 9a bd 6a cd ca 3c e6 5e 41 bd f7 23 99 3d
       -0.075369276 0.024756152 -0.047209643 0.07477563
0000c0 56 96 a5 bc ca 06 ef bc ae 89 5e 3d 01 5c 22 be
       -0.020213287 -0.029178042 0.05433052 -0.15855409
0000d0 ba c6 fd bc 92 ef 28 be 66 ea f6 bc 30 ec c6 bd
       -0.03097855 -0.16497639 -0.030141067 -0.09713018
0000e0 22 6b 43 3d 0b 22 17 bc 7d 83 05 3e 0c 8c e3 3d
       0.04770959 -0.009224425 0.1303844 0.11110696
0000f0 f8 2a 1f 3d ec fc 8b bd e5 bb 23 bd 8e e4 9f bd
       0.038859338 -0.068353504 -0.039974112 -0.07807265
000100 6d 59 d9 bc 7c 49 8d bd 37 1a 03 3d c1 7e f5 bc
       -0.0265319 -0.06898782 0.032007422 -0.029967668
000110 9d 91 b0 3d f0 64 26 be ae 79 8e bd 71 78 38 3d
       0.086215235 -0.16249442 -0.06956802 0.045036737
000120 db 29 67 3b f7 db 50 3c eb 84 1f be e9 2f 0a bd
       0.003527275 0.012747756 -0.15578048 -0.033737097
000130 c0 cd d3 bd d7 a8 dc 3d 5a f4 14 be 91 bf 1d 3d
       -0.10341978 0.10774391 -0.14546338 0.03851277
000140 60 40 07 3e 95 8b b3 bd 21 c5 85 3d c6 f3 a3 3d
       0.13208151 -0.087668575 0.0653174 0.080054805
000150 c1 ed 16 3d 09 94 f8 bd f3 8b 04 3e 53 60 bd 3d
       0.036847834 -0.121376105 0.12944011 0.09246888
000160 c4 b5 9d bd d7 07 0c be 99 cb b5 bd 9d 22 8a 3c
       -0.07700685 -0.13674866 -0.08876724 0.016862208
000170 a2 ca 95 3d 78 e2 e1 3d 28 66 86 39 ac 01 f9 bd
       0.0731404 0.110295236 0.00025634584 -0.12158522
000180 8f f1 db 3c 7a 1f b5 3d b9 25 81 bd 54 a8 e6 b9
       0.026848583 0.08843894 -0.06306023 -0.00043994433
000190 2f f2 f4 ba 34 46 a5 3d 60 35 d6 3d 8f 38 bd 3b
       -0.0018687899 0.08070031 0.10459399 0.0057745646
0001a0 14 01 05 be 0f 66 50 3d 85 cc 5f bb 62 76 ad bc
       -0.12988693 0.05087858 -0.0034149003 -0.021174613
0001b0 71 c2 be bc 63 8c ac 3d 1b 60 1d bc 25 c9 9a bd
       -0.023286076 0.08425214 -0.009605433 -0.075578965
0001c0 e6 2b 87 bd 04 e2 9e bd fb b6 0f be 2d 35 b3 3b
       -0.0660017 -0.07757953 -0.14034645 0.0054689855
0001d0 ca ec f0 bd 9e e4 20 3d 5c 83 b2 bc 51 1a e9 bc
       -0.11763914 0.039280526 -0.021791153 -0.028454931
0001e0 b2 c5 43 3d db 74 8d bd b5 3d 0a bd f4 19 87 3d
       0.04779596 -0.06907054 -0.033750255 0.06596747
0001f0 7b 4c 50 bd 7d 46 c2 3c 44 b5 2a bc 5d 0d 6c 3d
       -0.050854187 0.023715252 -0.010419194 0.05762993
000200 73 8b 9a bd e7 0f 81 bd 0f 7f e9 bb 3f 8b cf 3d
       -0.07546129 -0.06301861 -0.0071257423 0.10133981
000210 14 d1 91 bd c7 73 c8 bd 89 6a ee bd cc f8 94 bd
       -0.071199566 -0.09787708 -0.11641414 -0.07274017
000220 3e 8c 48 bd f2 5e cd 3c f8 60 cd bd 4d 8f cc bc
       -0.04896187 0.025069688 -0.10028261 -0.024970675
000230 04 dd 13 3d e1 68 15 3d e7 ea fb 3c c2 96 c9 bd
       0.03609945 0.036476973 0.030751659 -0.09843208
000240 c9 3a 78 3c 33 e7 c9 3c 99 42 ea 3d 5c 63 a5 3d
       0.015150734 0.024646377 0.11438484 0.08075592
000250 a1 6d 07 3e 77 73 e1 bd 0c a2 16 3d 93 31 79 3d
       0.13225414 -0.11008351 0.036775634 0.060838293
000260 72 20 eb 3b a8 5f c1 bd d1 6a 84 bd f5 93 c1 3d
       0.0071754986 -0.09442073 -0.06465686 0.09452049
000270 ed 51 5f bc c4 10 4f 3d ca 37 6e 3d d0 8f 36 bd
       -0.0136303725 0.0505531 0.058158673 -0.044570744
000280 0a dc 0f 3d aa 17 ff bd 0c 18 7a bd 18 62 d0 bc
       0.035121955 -0.124556854 -0.06105809 -0.0254374
000290 64 35 89 bd 8c 1d dd 3d 46 38 a3 bc 4c 15 db bd
       -0.066996366 0.10796651 -0.019924294 -0.106974214
0002a0 68 65 b6 3c e0 22 8e bc 04 04 8b 3d ea b7 10 3c
       0.022265151 -0.017350614 0.06787875 0.008832911
0002b0 6a 8f 79 bd 71 30 e7 3c 7d 6e b6 bd b7 5a 9f 3d
       -0.060927786 0.02822134 -0.08907793 0.07780974
0002c0 15 d9 e8 3c 1c 7c 87 bd 6c 2b 0b bd bd ef 00 be
       0.028423825 -0.06615469 -0.033976957 -0.12591453
0002d0 2c b1 03 3e 9e a3 bf 3d 49 e1 da 3d cc 73 c9 bd
       0.12860554 0.093573794 0.10687501 -0.098365396
0002e0 84 70 d1 3d 9f 1d 31 bd e6 be b8 3d 61 c0 e5 bd
       0.10226539 -0.04324114 0.09020786 -0.11218334
0002f0 8a 54 cc 3c b1 a6 af 3d ed f7 4e 3c 7c 2f 07 be
       0.024942655 0.08576716 0.012632352 -0.13201708
000300 6b 84 05 be ea 5a 2e 3d ee 67 61 bd 48 6c d8 bd
       -0.13038795 0.04256717 -0.055030756 -0.10567528
000310 2e 3c 6f bd 13 3e 9f 3c 16 17 b7 bc 55 5a 53 3d
       -0.058407 0.019438779 -0.022349875 0.05159982
000320 a2 50 ac 3d 20 15 b0 bd cc 53 91 3d 69 58 18 bd
       0.08413817 -0.08597779 0.07096061 -0.03719369
000330 12 ce 42 3d 44 51 a3 bc 28 11 80 bc 54 d1 66 bd
       0.047559805 -0.019936211 -0.01563318 -0.056351975
000340 67 33 ff bd 53 04 a6 3d ce dd 00 3e d1 43 30 bd
       -0.12460976 0.081062935 0.12584612 -0.043033425
000350 3a 84 4e 3d 63 89 09 3e 93 64 9a 3d 54 d5 c5 bc
       0.05041907 0.13431315 0.07538714 -0.024149574
000360 86 ce c4 3d 5a 84 d8 3d 6e 71 b8 3c 18 7d d1 3d
       0.09609704 0.10572119 0.022515025 0.10228938
000370 95 5d ff bd 6d 4e bc 3c 05 00 e6 bd 97 41 07 be
       -0.12469021 0.022986615 -0.112304725 -0.13208614
000380 bf 9e 99 bd f2 ac ee bd b9 aa 67 bd 17 7f ec bc
       -0.075009815 -0.116540805 -0.0565593 -0.028869195
000390 07 c7 71 bc 18 09 44 bc af 4b f4 bd 2c 5e 8f 3d
       -0.0147569245 -0.011965059 -0.11928498 0.07000384
0003a0 d7 15 aa bc 2a 98 c8 3c 81 ae fd 3b cc a6 c1 3c
       -0.020762367 0.02448662 0.0077417498 0.023639105
0003b0 4a ba f0 ba 94 9f f9 bc 8a 10 14 bd 55 09 d0 bd
       -0.0018366065 -0.0304716 -0.036148585 -0.1015803
0003c0 8e 03 a1 bd e7 b2 78 3c f3 f3 a3 3d 6f 05 d9 bc
       -0.07862006 0.015179372 0.08005514 -0.026491849
0003d0 f6 3a e7 3d 4c c0 ce bd f8 91 79 3d b4 d5 56 3d
       0.11290543 -0.100952715 0.060930222 0.052449897
0003e0 af dc a9 bd 2b 38 84 3d aa d8 b6 bd 4c ba de 3d
       -0.08294045 0.06456026 -0.08928044 0.10875377

fc3.bias f4 [3]
000000 23 4e 27 3d a5 2d ae 3d 05 cf 07 bd
       0.040846 0.085048 -0.033156414
