neuralnetwork/soilclassifier/soil_net.pth (torch, 249222 bytes, 10 tensors)

conv1.weight f4 [6, 3, 5, 5]
0	0xbdd3dd99	-0.10345001
1	0xbddf5f3a	-0.10906835
2	0x3d7dab38	0.061930865
3	0xbc85596f	-0.016277997
4	0xbc33bdf1	-0.0109705785
5	0x3b0f1e25	0.0021838036
6	0xbdbf600b	-0.093444906
7	0x3c94e670	0.018176287
8	0xbb8df454	-0.0043321047
9	0x3cb546db	0.022128513
10	0x3d73937f	0.059466835
11	0xbd8f7741	-0.07005168
12	0xbd829af5	-0.06377212
13	0x3d4c4676	0.049871884
14	0xbde1bc72	-0.11022271
15	0xbe12b741	-0.14327718
16	0xbdb7dadf	-0.08977293
17	0xbdde9484	-0.10868171
18	0xbde7c31a	-0.113165095
19	0xbd0f0a82	-0.03492213
20	0x3d20e849	0.039284024
21	0xbda684f6	-0.08130829
22	0xbd867536	-0.06565325
23	0xbcf0b3b7	-0.02938257
24	0x3d797b40	0.060908556
25	0xbe4bdc39	-0.19908227
26	0xbe5c7846	-0.21530256
27	0xbe040f3b	-0.12896435
28	0xbc534601	-0.012895108
29	0xbc945f08	-0.01811172
30	0xbe3d3f8a	-0.1848127
31	0xbe16a26f	-0.14710401
32	0xbc1610ff	-0.009159326
33	0x3c20b4b5	0.009808709
34	0xbe4e4cc0	-0.20146465
35	0xbe06541c	-0.13118023
36	0xbe54cbe6	-0.20780906
37	0xbe2cf683	-0.16890912
38	0xbd997e7e	-0.074948296
39	0xbe2b375d	-0.16720338
40	0xbd6cf5d8	-0.057851642
41	0xbde203e5	-0.11035899
42	0xbe4150c3	-0.18878464
43	0xbdfa1e7b	-0.12212845
44	0xbc317cdf	-0.010832994
45	0x3c0c5c37	0.008566908
46	0xbd2f67b2	-0.0428235
47	0xbe291097	-0.16510235
48	0xbdaa72e5	-0.08322696
49	0xbd152e63	-0.03642119
50	0x3d21cf6b	0.03950445
51	0xbd11b726	-0.035575055
52	0xbb816cfa	-0.0039497586
53	0x3cbea27d	0.02327084
54	0xbe0ab290	-0.13544679
55	0xbc38be5f	-0.011275857
56	0xbe0ffee7	-0.14062081
57	0xbda63fee	-0.08117662
58	0x3d712a06	0.058877967
59	0xbe0135e3	-0.12618212
60	0x3d0bec11	0.034160677
61	0xbddbfae4	-0.10741213
62	0xbdbe2a42	-0.09285404
63	0xbdeb303f	-0.114838116
64	0x3d92e408	0.071724
65	0xbd1d9b21	-0.03847802
66	0xbe0630d1	-0.1310456
67	0xbe0e192a	-0.13876787
68	0xbcb731df	-0.022362648
69	0xbe0b044d	-0.1357586
70	0xbd92202a	-0.07135041
71	0x3d276e7d	0.040876854
72	0x3d35d827	0.044395592
73	0xbe16e4d7	-0.14735733
74	0x3d3cb824	0.046074048
75	0xbd8548c6	-0.06508021
76	0xbc6e5851	-0.014547423
77	0x3cada69f	0.021197615
78	0xbd8168e3	-0.06318834
79	0x3dafb182	0.08578779
80	0xbcd67a6b	-0.02618142
81	0x3dcc4846	0.099747226
82	0xbcfeaa28	-0.031086996
83	0xbde3b01a	-0.11117573
84	0xbcfee2d8	-0.031114027
85	0xbd7d070c	-0.0617743
86	0x3d18b017	0.037277307
87	0xbcc30cc9	-0.023809807
88	0x3d85dbc5	0.06536058
89	0x3d0642e7	0.032778647
90	0xba8a55a5	-0.0010554089
91	0xbd58a68e	-0.052893214
92	0x3c058445	0.008149211
93	0x3c34de27	0.011039293
94	0xbc1bfd05	-0.009520774
95	0xbd9a6a0c	-0.07539758
96	0xbc94503e	-0.018104669
97	0x3ae94747	0.0017797732
98	0x3dc3e978	0.09566015
99	0x3c2aa9f9	0.010416501
100	0xbd320782	-0.04346419
101	0x3a06a056	0.0005135586
102	0xbd6bef2a	-0.05760113
103	0x3dc7cd7e	0.097559914
104	0xbd510213	-0.05102737
105	0x3dc3176c	0.09525952
106	0xbc9382d0	-0.018006712
107	0x3db3a6e9	0.0877207
108	0x3dcc9cab	0.099908195
109	0xbd3554f4	-0.04427047
110	0x3bf18c48	0.007371459
111	0x3d8a2b23	0.06746509
112	0x3d8d53a2	0.06900717
113	0x3ce0e08d	0.027450824
114	0x3dd976be	0.106183514
115	0xbc6e111a	-0.0145304445
116	0xbd5a8356	-0.053347908
117	0x3c8e7425	0.017389366
118	0xbd138921	-0.03601945
119	0x3d3a235c	0.045443878
120	0x3d547d96	0.05187758
121	0x3d4288a4	0.047493592
122	0x3cb4cba1	0.022069754
123	0x3d5ca7e2	0.053871043
124	0xbc9a4c02	-0.018835071
125	0x3ce8de9b	0.028426459
126	0x3bb61ffe	0.005558013
127	0x3d35ed95	0.04441603
128	0xbcc3e83d	-0.02391445
129	0xbdec6d79	-0.11544318
130	0xbdb42d79	-0.08797736
131	0xbdb4f7f5	-0.088363566
132	0xbd9b437f	-0.07581233
133	0x3b941ca5	0.0045200163
134	0xbe0fe408	-0.14051831
135	0xbdbdf9e8	-0.092761815
136	0xbda2db90	-0.079520345
137	0x3c300774	0.010743964
138	0x3d0968c4	0.033547178
139	0xbde082a4	-0.10962418
140	0xbda302c2	-0.079595104
141	0xbdf68e01	-0.12038804
142	0xbe036163	-0.12830119
143	0x3cc1e25d	0.023667509
144	0xbd724f03	-0.059157383
145	0xbdff6bcf	-0.12471735
146	0xbcb67aac	-0.022275291
147	0x3db80f49	0.089872904
148	0xbc6e8aff	-0.014559506
149	0x3cde2a7f	0.027119873
150	0x3c1b2867	0.009470082
151	0xbe005ea6	-0.12536106
152	0xbd384d44	-0.04499556
153	0xbdd04db9	-0.101710744
154	0x3d3827ce	0.044959836
155	0x3d925390	0.071448445
156	0xbd3af5ff	-0.045644756
157	0x3d8a2924	0.06746128
158	0x3d8ff3b4	0.070289046
159	0xbe0033f9	-0.12519826
160	0x3d4c4530	0.04987067
161	0xbc451186	-0.012028104
162	0x3c9d0d6f	0.019171445
163	0xbdd7971c	-0.10526869
164	0x3dc98cf3	0.09841337
165	0xbcb3c985	-0.021946678
166	0xbd941ed8	-0.072324455
167	0x3ded0117	0.115724735
168	0xbcb523bb	-0.022111764
169	0xbd763a83	-0.060114395
170	0x3d58ace7	0.052899268
171	0x3da4ad1d	0.08040831
172	0xbd1a8f23	-0.037734162
173	0xbb9b93cb	-0.004747843
174	0xbca1f439	-0.019769775
175	0xbc865271	-0.016396733
176	0xbe0a270c	-0.13491458
177	0xbdae9217	-0.08523958
178	0x3dc89b38	0.097952306
179	0xbd7e1f61	-0.062041644
180	0x3da5b65e	0.080914244
181	0x3d961bf3	0.0732955
182	0xbdab21fa	-0.0835609
183	0xbd130f05	-0.035902996
184	0x3aedc8c7	0.0018141501
185	0x3e0244f4	0.12721616
186	0x3d6dc5b2	0.058049865
187	0xbd88f5fb	-0.06687542
188	0x3db0a8a8	0.086259186
189	0xbcc4755c	-0.023981743
190	0xbde055d3	-0.1095387
191	0xbd2f7398	-0.04283485
192	0x3df1777d	0.11790369
193	0xbdf07b06	-0.11742215
194	0xbdb17df8	-0.08666605
195	0xbd8501d6	-0.06494491
196	0xbced7048	-0.028984204
197	0xbd862667	-0.065502934
198	0x3dd29c78	0.1028375
199	0x3dd53113	0.10409751
200	0x3d8508ee	0.06495844
201	0x3d3aba15	0.045587618
202	0xbcb7444d	-0.022371436
203	0x3dbcbf9c	0.09216234
204	0xbd4730ec	-0.04863064
205	0x3db94739	0.09046788
206	0x3da4f1e5	0.0805395
207	0xbdb6826e	-0.08911596
208	0xbd6fe96a	-0.05857221
209	0xbda0a0f4	-0.07843199
210	0x3dae5199	0.08511657
211	0x3c9fe143	0.019516593
212	0x3d664df5	0.05622669
213	0xbdd26f1b	-0.10275098
214	0xbc0bd86a	-0.008535484
215	0xbcd2ec82	-0.025747541
216	0xbd3fdc52	-0.046840973
217	0x3dd28d65	0.10280875
218	0xbd7ae077	-0.061249223
219	0xbc416303	-0.011803391
220	0xbd2f741c	-0.04283534
221	0x3b075558	0.0020650234
222	0x3cf9f306	0.03051139
223	0xbd1fd505	-0.03902151
224	0x3df9b0b4	0.121919066
225	0xbe086850	-0.13321042
226	0xbdcaab2e	-0.09895931
227	0x3df40f7b	0.11917015
228	0xbda55553	-0.08072915
229	0xbdb90cf1	-0.090356715
230	0xbdfa8081	-0.122315414
231	0xbcd5309b	-0.026024153
232	0x3bdd62d5	0.0067561665
233	0x3db8a64c	0.090160936
234	0xbdd0102b	-0.10159334
235	0xbd8067ef	-0.06269824
236	0xbd72dade	-0.05929076
237	0xbdb467c4	-0.08808854
238	0xbcbacf64	-0.02280397
239	0x3ddd7e4b	0.10815104
240	0x3dc343d1	0.09534419
241	0x3cbf85f5	0.023379305
242	0x3dce9faa	0.10089047
243	0xbd9141e1	-0.070926435
244	0xbdfb1dfb	-0.12261578
245	0x3dd39c08	0.10332495
246	0x3dcf7a5e	0.101307616
247	0x3d68c673	0.05682988
248	0xbddd7bd9	-0.10814638
249	0x3dce9afb	0.10088154
250	0xbdb24d4a	-0.08706148
251	0xbd9288e5	-0.07155017
252	0xbcdbbe57	-0.02682416
253	0x3d5459b6	0.051843368
254	0x3cb76218	0.022385642
255	0xbd759b82	-0.059962757

conv1.bias f4 [6]
0	0x3d3485c7	0.044072893
1	0x3d5dbe4f	0.05413657
2	0xbce7a806	-0.028278362
3	0x3d871b44	0.065969974
4	0xbdc214fd	-0.094766594
5	0x3e17016b	0.14746635

conv2.weight f4 [16, 6, 5, 5]
0	0xbd68a439	-0.05679724
1	0x3c58c841	0.013231338
2	0x3d9e4966	0.077288434
3	0xbd705a18	-0.05867967
4	0xbd848da9	-0.06472332
5	0xbd094357	-0.033511486
6	0xbcc91780	-0.024547338
7	0xbd9841c4	-0.07434419
8	0xbd8291f2	-0.06375493
9	0xbdb052a9	-0.08609516
10	0x3d9d3c8f	0.07677566
11	0x3d7c5c18	0.061611265
12	0x3d8fe6e8	0.07026464
13	0xbd8bb07b	-0.0682077
14	0xbd9efe23	-0.077633165
15	0xbc89667e	-0.016772505
16	0xbd3ef39e	-0.04661905
17	0xbc6f7bcb	-0.014616917
18	0x3c89c8dc	0.01681941
19	0xbdab0396	-0.08350293
20	0x3d7686c5	0.06018712
21	0xbd87d691	-0.06632722
22	0xbc925065	-0.0178606
23	0x3da60f70	0.08108413
24	0xbc84abb0	-0.016195148
25	0xbda11739	-0.078657575
26	0xbc161179	-0.009159439
27	0xbd358b84	-0.044322506
28	0xbd80aadc	-0.06282589
29	0x3cb992a5	0.022652933
30	0xbd60af42	-0.05485464
31	0x3d7c063a	0.061529376
32	0xbdb399c4	-0.08769563
33	0xbd5df567	-0.054189112
34	0xbd7b291f	-0.061318513
35	0xbd79ff40	-0.06103444
36	0xbd87f0c4	-0.06637719
37	0x3d412484	0.047153965
38	0x3d278861	0.040901545
39	0xbd2d551e	-0.042317502
40	0xbd9ff47c	-0.078103036
41	0x3d489cc3	0.048977625
42	0x3cb46f59	0.022025751
43	0x3c06c530	0.008225724
44	0xbd915997	-0.07097166
45	0x3cf5d355	0.030007998
46	0x3d795242	0.060869463
47	0xbd0cc813	-0.034370493
48	0xbd68c3fd	-0.056827534
49	0x3ca5f952	0.020260487
50	0xbda7bc9c	-0.08190271
51	0xbaba1192	-0.001419591
52	0x39f03999	0.0004581928
53	0x3bc45540	0.005991608
54	0x3c185d02	0.009299519
55	0xbd3a4a6f	-0.04548114
56	0x3d7b637e	0.06137418
57	0xbd83dcc8	-0.06438595
58	0xbd3b8ba2	-0.04578746
59	0xbd8f72be	-0.07004307
60	0x3bd5eae1	0.006528244
61	0xbd9f9d7c	-0.0779371
62	0xbbd8b45f	-0.006613299
63	0xbcdb42c5	-0.026765237
64	0xbd6ab24d	-0.057298947
65	0x3d86607e	0.06561373
66	0xbcc9d26d	-0.024636472
67	0xbd8511ab	-0.064975105
68	0x3d4e8c80	0.05042696
69	0xbd2fdd49	-0.042935643
70	0x3d07a2d1	0.03311426
71	0x3d7b97ac	0.061423942
72	0xbd711546	-0.05885818
73	0x3cfd58e1	0.03092617
74	0x3bd310d8	0.006441217
75	0x3cfce2d3	0.030869877
76	0xbbd337c2	-0.006445856
77	0x3d21d602	0.039510734
78	0xbdaa087d	-0.083024
79	0xbd16227c	-0.03665398
80	0xbcbe0389	-0.023195045
81	0x3b70458f	0.0036662554
82	0x3d1ecec0	0.03877139
83	0x3bd3b211	0.006460436
84	0xbd82ad30	-0.06380689
85	0x3d80a554	0.06281534
86	0xbd9c1b14	-0.07622352
87	0x3d8a4361	0.06751133
88	0xbd7ad9b0	-0.06124276
89	0x3d3eca0d	0.04657941
90	0x3d8f656e	0.07001768
91	0x3c92a4ec	0.017900907
92	0xbd105ebb	-0.035246592
93	0x3b0b7117	0.0021277124
94	0xbc6ebd8c	-0.014571559
95	0x3c0401d1	0.008057074
96	0xbdb15b77	-0.08660024
97	0x3d461ae6	0.048365496
98	0xbd2bf6d2	-0.041983433
99	0x3cdc1efd	0.026870245
100	0xbd9bf748	-0.076155245
101	0x3cb672b8	0.022271499
102	0xbd831f89	-0.06402499
103	0xbd8b9db1	-0.068171866
104	0x3d1c0a1f	0.03809559
105	0x3c034b28	0.008013524
106	0x3cf014ac	0.029306732
107	0xbc49e409	-0.012322434
108	0x3b0f36e2	0.002185278
109	0x3cae7b9c	0.021299176
110	0x3d10222f	0.03518885
111	0x3c8ebfed	0.017425502
112	0xbb7ba439	-0.0038397445
113	0x3d6175f9	0.055044148
114	0xbd40a030	-0.047027767
115	0xbda946f7	-0.082654886
116	0xbd98f0ee	-0.07467829
117	0x3d8d950f	0.06913196
118	0x3c8c353b	0.017115226
119	0xbd5a7bc4	-0.05334069
120	0x3ced64fa	0.028978813
121	0xbd2eb6ed	-0.04265492
122	0x3cc49111	0.023994954
123	0xbb5532eb	-0.003253157
124	0xbca23929	-0.019802647
125	0x3d123e3a	0.035703875
126	0xbc9a94b6	-0.018869739
127	0xbc517450	-0.012784079
128	0xbcfb67e9	-0.030689197
129	0xbc64ea21	-0.013971836
130	0xbd9f577a	-0.07780357
131	0x3d8eb37a	0.06967826
132	0xbdadba22	-0.08482768
133	0x3d8544f1	0.0650729
134	0x3a8a1fe1	0.0010538065
135	0xbc4e5e1b	-0.012595679
136	0xbd5a655a	-0.053319313
137	0xbbbba59e	-0.00572653
138	0x3b1f8b5b	0.0024344537
139	0x3d91f74a	0.07127245
140	0xbcf52677	-0.029925568
141	0x3d04e597	0.032445516
142	0x3bb1040d	0.005402094
143	0x3c924226	0.017853808
144	0xbd3c6997	-0.045999136
145	0xbcfef67e	-0.031123396
146	0xbcf0b854	-0.02938477
147	0x3d67458c	0.05646281
148	0xbd81182d	-0.06303439
149	0x3ce78af0	0.028264493
150	0x3c6e19a5	0.014532481
151	0x3e1478da	0.14499226
152	0x3d827e1c	0.0637171
153	0x3d7ec90e	0.06220346
154	0x3d909d9a	0.0706131
155	0x3d0f23dd	0.03494631
156	0x3dae3fb6	0.08508246
157	0x3bcdc17f	0.00627917
158	0x3cf62063	0.03004474
159	0x3dd9c162	0.10632588
160	0x3d714fc8	0.058913976
161	0xbadae9ae	-0.0016701722
162	0xbbdf3110	-0.0068112686
163	0x3c428fa8	0.011875071
164	0x3cdbd9e3	0.026837295
165	0x3ca37b49	0.019956248
166	0x3ccab377	0.024743779
167	0xbca4f9d6	-0.020138662
168	0xbcaa329f	-0.020776091
169	0x3da1e98f	0.07905876
170	0x3d7a44c6	0.061100744
171	0xbd3fdc83	-0.046841156
172	0x3d198aa8	0.03748575
173	0xbb88ead1	-0.004178383
174	0xbc9da0d2	-0.019241724
175	0xbda9236b	-0.082587086
176	0xbd9d475d	-0.07679627
177	0xbd88af4c	-0.0667406
178	0x3cc4da80	0.02402997
179	0x3d962e52	0.07333054
180	0xbc7d988f	-0.015478267
181	0x3c453ad8	0.012037955
182	0x3d98f10d	0.07467852
183	0xbda52b6b	-0.08064922
184	0xbd396a00	-0.045267105
185	0xbd1006e5	-0.035162825
186	0x3d84d424	0.06485775
187	0x3c2d19cb	0.010565232
188	0xbcdc4664	-0.026889034
189	0x3d59a829	0.053138886
190	0x3d41f641	0.047353987
191	0xbdad9a5c	-0.08476707
192	0x3d244f2d	0.04011457
193	0xbd78f0b7	-0.06077644
194	0xbd2f9a6c	-0.042871878
195	0x3d7d4dcc	0.06184177
196	0xbc068f32	-0.008212851
197	0x3c95367b	0.018214455
198	0x3ca7bb8c	0.020475172
199	0x3d4cd834	0.050010875
200	0xbd0cc35b	-0.034365993
201	0x3c746ace	0.014918042
202	0xbd9207a3	-0.07130363
203	0x3d097402	0.0335579
204	0x3d2ea124	0.042634144
205	0x3d6d0f2e	0.057875805
206	0x3db1ec7b	0.08687683
207	0xbd33e887	-0.043922927
208	0xbc95b3b5	-0.018274168
209	0x3d6f53c6	0.058429502
210	0xbc8265da	-0.015917707
211	0x3db11ea0	0.086484194
212	0x3d0ac701	0.03388119
213	0x3b4e9824	0.0031523788
214	0xbccd34bf	-0.025049565
215	0xbd1a6512	-0.037694044
216	0x3cd39bd4	0.02583114
217	0xbda2dc7d	-0.07952211
218	0x3d99557e	0.074870095
219	0x3d83121c	0.063999385
220	0x3dab8f89	0.083769865
221	0x3cbbe794	0.022937573
222	0x3dac8ace	0.084249124
223	0xbbd9a7c4	-0.0066423137
224	0xbd87df2c	-0.066343635
225	0x3dfad256	0.1224715
226	0x3d049e68	0.03237763
227	0x3e057d89	0.13036169
228	0x3dfe2a97	0.12410467
229	0x3df2492d	0.118303634
230	0x3c73ff16	0.01489236
231	0xbd35e5a7	-0.044408467
232	0x3a8a3acb	0.0010546086
233	0x3d9f677b	0.07783409
234	0x3d69d4d1	0.057087723
235	0xbb9eae49	-0.0048425538
236	0x3d1feb73	0.0390429
237	0x3da8ff8b	0.08251866
238	0x3c42c0b2	0.011886762
239	0xbce9e342	-0.028550748
240	0xbd2f3696	-0.042776667
241	0x3ddc06f4	0.10743514
242	0x3d9e2129	0.077211685
243	0xbccc45e0	-0.024935663
244	0x3db86ff8	0.09005731
245	0xbd00c6b7	-0.03143951
246	0x3dd2f89b	0.10301324
247	0xbd242b4a	-0.040080346
248	0xbc9a4dff	-0.01883602
249	0x3d9e58d6	0.07731788
250	0xbd3c7e19	-0.046018694
251	0xbccf7953	-0.025326407
252	0xbdbbddef	-0.0917319
253	0xbd349616	-0.044088446
254	0xbdc47d10	-0.09594166
255	0xbceb3d28	-0.028715685

conv2.bias f4 [16]
0	0xbdae079c	-0.08497545
1	0x3daaabf7	0.08333581
2	0xbdb7aeb2	-0.08968867
3	0xbd52378b	-0.0513225
4	0xbce06ca6	-0.027395558
5	0xbb503009	-0.0031766912
6	0xbde35b56	-0.11101405
7	0x3c7240c7	0.014785952
8	0xbc585d15	-0.013205786
9	0x3b993118	0.004675042
10	0xbcd6106f	-0.026130883
11	0xbdb8e8c8	-0.090287745
12	0x3dac0ec4	0.08401254
13	0xbbdec90c	-0.006798869
14	0xbd8cd4ff	-0.06876563
15	0xbd463473	-0.048389863

fc1.weight f4 [120, 400]
0	0x3c1c8ad3	0.009554583
1	0x3d0681f7	0.032838788
2	0x3b91a14d	0.0044442774
3	0x3cc45e1d	0.023970658
4	0xbd0a3ebb	-0.03375123
5	0x3c9656d3	0.018351948
6	0x3cbcc4f3	0.023043131
7	0x3c1c6d33	0.0095475195
8	0x3cffce33	0.031226253
9	0x3c648ee0	0.01395008
10	0xbd366b65	-0.044536013
11	0x3cbf1803	0.02332688
12	0x3cba239a	0.022722054
13	0xbd0d3be2	-0.034480937
14	0xbd388d35	-0.04505654
15	0x3c881803	0.016613012
16	0xbd0eb11f	-0.034836885
17	0x3cc2875a	0.023746181
18	0xbc0922c0	-0.008370101
19	0xbd391c65	-0.045193095
20	0x3c9f82da	0.019471575
21	0xbc6b9e67	-0.014381028
22	0x3d23accd	0.039959718
23	0x3c72254d	0.014779401
24	0x3d1cbb03	0.038264286
25	0xbd1efc33	-0.038814735
26	0x3ccba8b6	0.024860721
27	0xbb619fbc	-0.0034427484
28	0xbcdd17e8	-0.026988938
29	0x3c874463	0.016512102
30	0xba06fb41	-0.0005149134
31	0x3bcf64a2	0.006329135
32	0x3cacaf9d	0.021079833
33	0xbc37b554	-0.011212666
34	0x3c87b445	0.016565451
35	0xbbac4c42	-0.005258114
36	0x3d363bd6	0.044490658
37	0xbcf6d99f	-0.030133067
38	0xbc2452bb	-0.01002949
39	0x3d11391e	0.03545486
40	0x3cd28011	0.025695832
41	0xbd06a77d	-0.032874573
42	0xbbeda054	-0.0072517786
43	0xbc52ecf5	-0.012873878
44	0xbd580a21	-0.052744035
45	0x3c59f0b8	0.013302021
46	0x3beeb964	0.007285284
47	0xbd19ace2	-0.03751839
48	0x3c1fda7d	0.0097566815
49	0xbd00f441	-0.03148294
50	0xbc4cb2b8	-0.012493782
51	0x3d1cb6b7	0.038260188
52	0xbc82d78a	-0.015971918
53	0xbbbcbbe4	-0.005759703
54	0xbd368de3	-0.044568907
55	0x3d0f78dd	0.035027374
56	0xbd371782	-0.044700153
57	0xbbb8264e	-0.0056198006
58	0x3c225817	0.009908698
59	0xbc9f2304	-0.019425876
60	0x3d327162	0.04356516
61	0x3c64e332	0.013970183
62	0x3c80dea2	0.01573116
63	0xbcb22944	-0.021748193
64	0xbd452d23	-0.04813875
65	0x3d132b11	0.035929743
66	0xbd64c212	-0.055849142
67	0xbd4c5251	-0.04988319
68	0x3c2ec4f7	0.010667077
69	0xbccd807b	-0.025085678
70	0xbd5a9c48	-0.053371698
71	0xbc83cdb6	-0.016089302
72	0xbd3a1188	-0.045426875
73	0xbd35b9f6	-0.0443668
74	0x3ca0a1a9	0.019608336
75	0xbbf683a4	-0.007523017
76	0xbbea625b	-0.007152838
77	0xbcdf2a6a	-0.027241904
78	0xbd6e8121	-0.058228616
79	0xbb25797e	-0.0025249417
80	0x3b7ee83d	0.003889575
81	0x3c36f164	0.01116595
82	0xbd0a7e96	-0.033812128
83	0xbbddb511	-0.0067659696
84	0xbca501c3	-0.020142442
85	0x3cd934cd	0.026514435
86	0x3a83c97a	0.0010054552
87	0xbd28c46f	-0.04120296
88	0xbd517408	-0.051136047
89	0xbd7ae179	-0.061250184
90	0x3cef7bfe	0.029233929
91	0xbd11b212	-0.03557021
92	0xbb3c882c	-0.0028767688
93	0xba214022	-0.0006151219
94	0xbd26086a	-0.040535368
95	0xbd801188	-0.06253344
96	0x3bd636ec	0.006537309
97	0x3c4a05b5	0.012330462
98	0xbc3dbbe1	-0.011580438
99	0x3d3cd396	0.04610022
100	0xbcea4c5f	-0.02860087
101	0xbbf46eae	-0.007459483
102	0x3be26624	0.006909149
103	0x3c2d772f	0.010587498
104	0xbd558c56	-0.052135788
105	0xbcf7ddb8	-0.03025709
106	0x3c7aec74	0.015315164
107	0x3c73a3de	0.014870612
108	0xbb8d75f6	-0.0043170406
109	0x3d2ca2a4	0.042147294
110	0xbd41d4f2	-0.04732222
111	0xbd2dba1e	-0.042413823
112	0x3d1a6739	0.037696097
113	0x3d13a3ba	0.036044814
114	0x3c9be907	0.019032015
115	0xbcec7b16	-0.028867286
116	0x3cf57192	0.029961381
117	0x3b850687	0.004059616
118	0xbc344f3f	-0.011005222
119	0x3c5180b1	0.01278703
120	0x3c334397	0.010941408
121	0x3cfb2c9f	0.030660925
122	0x3c4f56ad	0.012654942
123	0xbd17e495	-0.037083227
124	0x3ca3c47d	0.019991154
125	0xbd597a50	-0.053095162
126	0xbd3e6cf0	-0.04649061
127	0xbbe5372c	-0.0069951024
128	0x3c9ce84e	0.01915374
129	0x3bbaa03c	0.005695371
130	0x3cf1fa80	0.029538393
131	0xbd073efc	-0.03301905
132	0xbba7722d	-0.0051100464
133	0xbc3fa871	-0.011697874
134	0x3d099c2c	0.033596203
135	0x3d05841b	0.03259669
136	0xbc63f898	-0.01391425
137	0xbd57c934	-0.052682117
138	0x3c2b54a4	0.010457192
139	0x3d229262	0.039690383
140	0x3c5d7f54	0.013519127
141	0xbd5685e1	-0.05237377
142	0xbc24fbb2	-0.010069774
143	0xbd53ac1f	-0.05167782
144	0x3ce0153c	0.027353875
145	0xbd2696c7	-0.040671136
146	0xbccf68ae	-0.02531847
147	0x3ced6519	0.028978871
148	0x3ce4bf9a	0.027923394
149	0xbc6cfc90	-0.0144645125
150	0x3c7c5945	0.015402143
151	0xbc8a1677	-0.016856415
152	0xbd5ac22d	-0.053407837
153	0xbb78a3ef	-0.003793951
154	0x3c9c3c30	0.019071668
155	0x3c17a6bb	0.00925606
156	0xbc959efb	-0.018264284
157	0xbc5b3fca	-0.013381908
158	0xbcd01177	-0.025398953
159	0xbcad5cfb	-0.0211625
160	0xbcd07bb6	-0.025449615
161	0xbd0d187e	-0.034447186
162	0xbc557b47	-0.01302988
163	0xbcd3de6c	-0.025862895
164	0x3ce7672e	0.028247442
165	0x3cd56f5b	0.026054075
166	0x3c92c6b6	0.017917018
167	0xbc350226	-0.0110478755
168	0xbabb67bc	-0.0014297883
169	0x3c99d54f	0.018778471
170	0x3cadd960	0.021221817
171	0x3cbd0392	0.023072992
172	0x3d27d55f	0.04097497
173	0x3ccb309c	0.024803452
174	0xbd22cee1	-0.039748076
175	0xbd186ec0	-0.037214994
176	0xbcb0a092	-0.02156094
177	0xbd59e3b9	-0.05319569
178	0xbd4f05e0	-0.050542712
179	0x3a3d7c59	0.0007228307
180	0xbd3f7831	-0.046745483
181	0xbc01e4f4	-0.007928122
182	0xbc7090b7	-0.01468294
183	0xbce67069	-0.028129773
184	0x3d11ce46	0.03559711
185	0xbd3e80f3	-0.046509694
186	0x3cc08f95	0.023505965
187	0xbb5a4eb9	-0.0033311083
188	0xbb9f363f	-0.0048587616
189	0xbb1541a4	-0.002277472
190	0x3c6f5edf	0.014610021
191	0x3d154ecb	0.036452096
192	0xbcd83c66	-0.026395988
193	0xbcd963b2	-0.026536796
194	0xbd4170ae	-0.0472266
195	0xbc83dfbb	-0.016097894
196	0xbd353309	-0.044238124
197	0x3ac22215	0.0014811183
198	0xba9a5e17	-0.0011777309
199	0x3c9ac9db	0.01889508
200	0xbc49b87e	-0.012312053
201	0x3cc33288	0.023827806
202	0xbccc861d	-0.024966294
203	0xbd61e8a8	-0.05515352
204	0x3b979d6a	0.0046269195
205	0x3c27bee7	0.010238386
206	0x3bd54e2d	0.0065095634
207	0xbd3f9c17	-0.04677972
208	0x3c8a07e1	0.01684946
209	0xbd14d4d4	-0.03633578
210	0xbc8d6536	-0.017260175
211	0xbc1e4338	-0.009659581
212	0x3ad4a9e1	0.0016224944
213	0x3c366a7e	0.011133788
214	0xbbe8332f	-0.0070861797
215	0xbd61bb60	-0.055110335
216	0x3d0130d8	0.03154072
217	0xbc315ab0	-0.010824844
218	0x3d2dd945	0.042443532
219	0x3d295c45	0.04134776
220	0xbd0d8afd	-0.034556378
221	0xbd53706c	-0.051620886
222	0xbd5fef1b	-0.054671388
223	0xbc47811f	-0.012176781
224	0xbd0ae6f5	-0.033911664
225	0xbd3d6a51	-0.04624397
226	0xbcff017c	-0.031128637
227	0xbceeafb5	-0.029136518
228	0xbcfec816	-0.031101268
229	0xbd4a7916	-0.049431883
230	0xbb8c47ab	-0.0042810044
231	0x3cc4e8b0	0.024036735
232	0x3bc22f93	0.0059260814
233	0xbaa0878c	-0.0012247427
234	0xbd2eea58	-0.042703956
235	0x3cc605fb	0.024172774
236	0xbd62300a	-0.055221595
237	0xbcb09b32	-0.021558378
238	0x3c8c6c0c	0.017141365
239	0xbc8e7296	-0.017388623
240	0xbc2f05e9	-0.010682561
241	0xbd1c3298	-0.038134187
242	0x3ce5a29c	0.02803164
243	0xbcebe4ca	-0.028795619
244	0xbd3163b6	-0.043307982
245	0xbd1f7b7e	-0.03893613
246	0x3d06b2e8	0.032885462
247	0xbc230012	-0.009948747
248	0xbbf184f4	-0.0073705856
249	0x3b22cbb6	0.002484066
250	0xbc8dad4f	-0.017294554
251	0xbd660e87	-0.056166198
252	0x3cc978a6	0.024593662
253	0xbd1556b6	-0.036459647
254	0xbcd798f7	-0.026318057
255	0x3cbee437	0.02330218

fc1.bias f4 [120]
0	0x3cd3a73f	0.025836585
1	0x3c05a2b7	0.00815647
2	0xbd1d7da0	-0.038449883
3	0xbd5caeed	-0.05387776
4	0x3c9c56cb	0.019084355
5	0xbc920eb4	-0.017829277
6	0xbce8fd10	-0.028440982
7	0xbc43f061	-0.011959166
8	0x3de542dc	0.11194393
9	0x3d829a27	0.063770585
10	0x3d979bc8	0.0740276
11	0x3da1aa6c	0.078938335
12	0x3cee0924	0.029057093
13	0x3c7ad666	0.015309906
14	0x3cd3fde1	0.025877895
15	0x3dfc90f2	0.123323336
16	0xbcf55b76	-0.029950839
17	0xbd11e204	-0.035615936
18	0x3c546f42	0.012965979
19	0x3d961238	0.07327694
20	0xbc9ff086	-0.01952387
21	0xbd8eb29f	-0.06967663
22	0x3d5bb924	0.05364336
23	0xbd38ff26	-0.045165204
24	0xbcb6c115	-0.022308866
25	0x3e054d23	0.13017707
26	0x3df59fe7	0.119933896
27	0xbbf81daa	-0.0075718956
28	0xbd93c487	-0.07215219
29	0x3de086f5	0.10963241
30	0xbcd7491e	-0.026279982
31	0x3e16c2c6	0.14722738
32	0xbd5a9af3	-0.053370427
33	0xbd036b4e	-0.032084756
34	0x3e0c5267	0.13703309
35	0x3b8a440d	0.004219538
36	0xbc497a73	-0.012297261
37	0xbbf17cc6	-0.0073696105
38	0x3c5e4310	0.013565794
39	0x3d9314d9	0.07181711
40	0x3d1ae192	0.037812777
41	0x3c98f850	0.018673092
42	0xbc9a9e9b	-0.018874457
43	0xbc83b45b	-0.016077211
44	0x3e077d1e	0.13231322
45	0x3ccc2804	0.024921425
46	0x3e2438a9	0.16037239
47	0x3d116748	0.035498887
48	0x3dfef205	0.12448505
49	0xbcf7eab3	-0.03026328
50	0x3de52b0b	0.111898504
51	0xbd2783e8	-0.04089728
52	0x3d40005a	0.046875335
53	0xbd393cab	-0.045223873
54	0xbd369ca6	-0.044582985
55	0xbd1c5d1f	-0.038174745
56	0xbcf8fcb6	-0.03039394
57	0x3dc92acd	0.09822617
58	0x3bea9ec8	0.0071600415
59	0x3e014d19	0.12627067
60	0xbcd531b3	-0.026024675
61	0xbd9be740	-0.07612467
62	0x3a3579ce	0.00069227524
63	0x3e0f7c1b	0.14012186
64	0xbce51818	-0.02796559
65	0xbd937b81	-0.07201291
66	0x3d08c092	0.033386774
67	0x3d118dfe	0.035535805
68	0x3dd22820	0.102615595
69	0x3d7c20cc	0.061554715
70	0xbd6c936e	-0.057757787
71	0xbc90d3a8	-0.01767905
72	0x3bc09d81	0.005878151
73	0x3db126a8	0.08649951
74	0x3cb67a2a	0.02227505
75	0x3d701e0a	0.058622397
76	0xbd2f8983	-0.04285575
77	0xbaa741ee	-0.0012760737
78	0xbc978679	-0.018496739
79	0xbd92ae49	-0.071621485
80	0x3c117108	0.008877046
81	0xbc81dcda	-0.01585238
82	0xbdb175e8	-0.08665067
83	0xbd03841a	-0.032108404
84	0xbdb1e147	-0.08685546
85	0x3dcdfe75	0.100582995
86	0xbd88d477	-0.066811495
87	0x3c0a95d1	0.008458571
88	0x3d8966cf	0.06709062
89	0xbc18e82a	-0.009332696
90	0xbd118da2	-0.035535462
91	0xbd36907c	-0.044571385
92	0x3d01e1fc	0.031709656
93	0x3cf020a8	0.029312447
94	0x3d43ab17	0.047770586
95	0x3c20f503	0.00982404
96	0xbb15a40f	-0.0022833382
97	0xbd08fc68	-0.03344384
98	0x3e00e418	0.12587011
99	0x3dde1493	0.10843768
100	0x3d8c464d	0.06849346
101	0xbd1bdf1d	-0.038054574
102	0x3df9ffa8	0.12206966
103	0x3de4a972	0.11165132
104	0xbd200ecf	-0.039076623
105	0x3c8945be	0.016756888
106	0xbc6aedcd	-0.014338923
107	0x3dafba1e	0.08580421
108	0x3e1ef959	0.15524806
109	0xbd24c311	-0.040225092
110	0xbd46ea93	-0.04856355
111	0xbccad8d5	-0.024761597
112	0x3e1a9de1	0.15099289
113	0xbd9ef845	-0.077621974
114	0xbd372f2f	-0.044722732
115	0x3d8a6103	0.06756785
116	0xbd6b564e	-0.057455353
117	0xbcb6d683	-0.022319084
118	0xbcf29c99	-0.029615687
119	0x3e019679	0.12655057

fc2.weight f4 [84, 120]
0	0x3d078e0f	0.033094462
1	0x3c097155	0.008388837
2	0xbabbfcbc	-0.0014342288
3	0x3b55e57b	0.0032638002
4	0x3a43c6d9	0.000746829
5	0xbd25b384	-0.040454403
6	0x3d741ace	0.059595875
7	0x3b97c1c7	0.0046312544
8	0xbdc7d77b	-0.097578965
9	0xbd7a9bc7	-0.061183717
10	0x3c959324	0.018258639
11	0x3d180b1b	0.037119966
12	0x3c502e51	0.012706355
13	0x3cd7cc76	0.026342612
14	0x3dab71d9	0.08371324
15	0xbd8aa1fe	-0.06769179
16	0xbda045d6	-0.0782582
17	0xbc9759dc	-0.018475465
18	0x3d449c9c	0.048000917
19	0x3d7008bf	0.05860209
20	0xbc17bbd8	-0.009261094
21	0x3d93c06d	0.07214437
22	0xbc8e3932	-0.017361257
23	0xbdba09de	-0.09083913
24	0x3b35947b	0.002770691
25	0xbda031f0	-0.07822025
26	0x3cc5eb47	0.02416004
27	0x3c10a73f	0.008828937
28	0x3d28e6b7	0.04123565
29	0xbc07c411	-0.008286492
30	0xbc91f4be	-0.017816897
31	0xbd55ae62	-0.052168258
32	0x3d92ed40	0.07174158
33	0xbdac21c6	-0.08404879
34	0xbda485da	-0.08033343
35	0xbbf05f9d	-0.0073356167
36	0x3df8806b	0.12133869
37	0x3bd5b058	0.006521266
38	0x3dc143e2	0.09436776
39	0x3c35f799	0.011106395
40	0xbdbcfe16	-0.092281505
41	0x3dae5f8f	0.0851432
42	0x3c37ca9d	0.01121774
43	0x3d4daaaf	0.050211605
44	0xbcbb002c	-0.02282723
45	0x3cfcc31e	0.030854758
46	0x3c5db18e	0.013531102
47	0x3c1d63b1	0.009606288
48	0xbdb16315	-0.086614765
49	0x3dac883b	0.084244214
50	0x3d7b6baa	0.061381973
51	0x3d578ff6	0.052627526
52	0x3dc046ab	0.09388479
53	0xbd0d5b88	-0.03451112
54	0xbd47c426	-0.048771046
55	0x3dbd9f05	0.09258846
56	0x3c6f8c4a	0.01462085
57	0x3cfc41b6	0.030793052
58	0xbdd908e4	-0.10597399
59	0x3d3ec79f	0.046577092
60	0xbd474a1c	-0.04865466
61	0x3df7b4ce	0.12095033
62	0x3bee791a	0.00727762
63	0xbdda46a5	-0.106580056
64	0x3d9d5711	0.07682622
65	0xba0cfdb2	-0.000537838
66	0xbd585cf8	-0.052823037
67	0x3d70dd21	0.058804635
68	0xbd3e424f	-0.046449956
69	0xbcca2fa3	-0.024680918
70	0x3d1b7ccc	0.037960812
71	0xbd4c6178	-0.04989764
72	0x3cf94932	0.03043041
73	0x3d09b197	0.03361663
74	0xbd23ef14	-0.040022925
75	0x3c1815fd	0.009282586
76	0xbc27d5c3	-0.010243836
77	0x3d894dbc	0.0670428
78	0xbe010365	-0.12598951
79	0x3d32c36b	0.043643396
80	0xbd876b69	-0.06612284
81	0x3d3edb62	0.04659594
82	0x3d68020b	0.056642573
83	0x3cbc2c16	0.02297024
84	0xbc0077e3	-0.007841083
85	0xbdf614c9	-0.12015683
86	0xbb9c708c	-0.004774159
87	0x3ba46766	0.005017209
88	0x3daa38d0	0.083116174
89	0xbb6867f0	-0.0035462342
90	0xbd2820c5	-0.041046876
91	0x3dba5c43	0.09099629
92	0x3da43001	0.080169685
93	0x3bc14aa0	0.0058987886
94	0x3cf8b44b	0.030359408
95	0x3ce37012	0.0277634
96	0x3d858897	0.06520193
97	0xb9d660f7	-0.00040889505
98	0x3c2899fb	0.010290618
99	0x3c2b3632	0.010449933
100	0x3d83d1b9	0.06436486
101	0x3dd6233d	0.1045594
102	0xbb0ec9dc	-0.0021787798
103	0xbd7bb557	-0.061452236
104	0x3c1421e1	0.0090412805
105	0x3d5f3230	0.054491222
106	0x3c7af0f6	0.015316239
107	0xbd581708	-0.05275634
108	0xbd625ef7	-0.055266347
109	0x3d6f836e	0.05847495
110	0xbd07bcac	-0.033138916
111	0xbb546b1c	-0.0032412475
112	0xbd562ae6	-0.052287005
113	0x3dceb3a3	0.10092857
114	0xbda25be4	-0.07927683
115	0xbc688b96	-0.014193436
116	0x3bd2edca	0.006437038
117	0xbd16439b	-0.036685567
118	0x3cb33c17	0.021879239
119	0xbd0b646f	-0.034031328
120	0xbd24b508	-0.040211707
121	0xbd4c3a63	-0.04986037
122	0xbd5f6ae8	-0.054545313
123	0x3d144e7f	0.036207672
124	0x3dac72b3	0.08420315
125	0x3ce873e3	0.028375572
126	0x3d41ce6a	0.047315992
127	0xbd114609	-0.03546718
128	0x3e15264f	0.14565395
129	0xbcea7b0a	-0.028623123
130	0xbda49038	-0.0803532
131	0x3e0fdf08	0.14049923
132	0xbb86fdb0	-0.0041195974
133	0xbd727a14	-0.059198454
134	0xbd00c707	-0.031439807
135	0x3e203d0b	0.15648286
136	0x3d5a66bb	0.053320628
137	0x3b08f4c1	0.0020897838
138	0x3c11c7fa	0.008897776
139	0x3e3cd562	0.18440774
140	0x3d9e79c8	0.07738072
141	0xbc2e0d77	-0.010623327
142	0x3d6259b7	0.05526134
143	0x3d73446b	0.05939142
144	0xbd82be68	-0.06383973
145	0x3ddfe4c6	0.10932307
146	0x3db47fdf	0.08813452
147	0x3cc78e46	0.024359833
148	0xbd616da3	-0.0550362
149	0x3d08e962	0.033425696
150	0x3cf13673	0.029444909
151	0x3e3616a8	0.1778208
152	0xbbe372fe	-0.0069411984
153	0x3d717c14	0.05895622
154	0x3d9f1d64	0.07769278
155	0x3cf9bca3	0.030485457
156	0xbcf99015	-0.030464211
157	0x3d2a9c44	0.041652933
158	0xb95c392b	-0.00021002132
159	0x3e23dbd0	0.1600182
160	0x3b8be2c4	0.004268976
161	0x3dbd39a9	0.092395134
162	0xbd125d70	-0.03573364
163	0xbd83c2ef	-0.06433665
164	0x3d16f41e	0.036853902
165	0x3d4abdea	0.049497522
166	0x3e383bc1	0.17991544
167	0xbc474776	-0.012163034
168	0x3d89336e	0.066992626
169	0x3d5162fc	0.05111979
170	0x3db22dfc	0.08700177
171	0xbccedc32	-0.025251482
172	0xbbf23837	-0.0073919552
173	0x3c8aa968	0.016926482
174	0xbce50a9a	-0.027959157
175	0xbdcf5426	-0.10123472
176	0x3c5e7d83	0.013579729
177	0x3e255daf	0.16149019
178	0x3cc1651b	0.023607781
179	0x3e0ca15b	0.13733427
180	0x3d31f0e5	0.043442626
181	0xbb1c54b5	-0.00238542
182	0xbd070272	-0.032961316
183	0x3e078daa	0.13237634
184	0x3c65e0fd	0.014030692
185	0xbc2c9fda	-0.010536158
186	0x3d8bc144	0.06823972
187	0x3d96152c	0.07328257
188	0x3deceddd	0.11568806
189	0x3caa976a	0.020824153
190	0xbd0e43d1	-0.034732644
191	0x3d8a2d89	0.067469664
192	0xbca3fc94	-0.0200179
193	0xbd45a88d	-0.048256446
194	0x3e1281c4	0.14307314
195	0x3cd8a1a3	0.026444262
196	0x3dae59d4	0.08513227
197	0x3d865177	0.06558507
198	0xbcc7ba11	-0.024380716
199	0xbcef4a27	-0.029210163
200	0x3d30f060	0.04319799
201	0xbd5a38b7	-0.053276744
202	0xbdeba7e9	-0.11506636
203	0xbd9c2c77	-0.076256685
204	0xbe0193f7	-0.126541
205	0x3dd854f4	0.105630785
206	0xbca267df	-0.01982492
207	0xbcd6d269	-0.026223378
208	0x3d607296	0.054796778
209	0x3d0b4a0c	0.034006163
210	0x3ceedff4	0.029159524
211	0xbdc70591	-0.097178586
212	0xbcd95e86	-0.02653433
213	0x3da682ba	0.08130403
214	0xbd6bf994	-0.057611063
215	0x3d72be3c	0.059263453
216	0x3c6f559e	0.014607815
217	0xbd403793	-0.046928
218	0x3d6b508c	0.057449862
219	0x3e02708e	0.12738249
220	0x3d648a2a	0.055795826
221	0xbdd2a517	-0.10285395
222	0x3dd09435	0.10184518
223	0x3e2a99af	0.16660188
224	0x3aea202e	0.0017862373
225	0x3c614551	0.0137494365
226	0xbd13d302	-0.036089905
227	0x3d972d18	0.07381648
228	0x3d826cd4	0.063684136
229	0xbd8a297c	-0.06746194
230	0x3c0f8447	0.008759565
231	0xbd1cc8b5	-0.038277347
232	0x3dd7264c	0.105053514
233	0xbce11894	-0.02747754
234	0x3d77aaaf	0.06046551
235	0x3dab72a7	0.083714776
236	0xbd43b1c3	-0.04777695
237	0x3d571a1e	0.05251514
238	0x3d7135d4	0.058889225
239	0x3daffbd8	0.08592957
240	0x3db233d4	0.08701292
241	0x3d434984	0.04767753
242	0xbc296242	-0.010338368
243	0x3d0db763	0.03459872
244	0xbd5eddeb	-0.054410856
245	0x3d0b3249	0.033983503
246	0xbd8c6c4a	-0.06856592
247	0x3db40d2a	0.08791573
248	0x3c2cd9c9	0.010549971
249	0x3de77e79	0.113034196
250	0xbd215e21	-0.03939641
251	0xbe14e6c0	-0.14541149
252	0x3d0966d2	0.033545323
253	0xbd8cd8a6	-0.0687726
254	0x3c8f822c	0.017518125
255	0xbcc5ab51	-0.024129542

fc2.bias f4 [84]
0	0xbddae581	-0.10688306
1	0x3e350d9b	0.17680971
2	0x3daa628f	0.0831958
3	0x3c9a929d	0.018868739
4	0x3d0de303	0.034640323
5	0xbd1eb130	-0.038743198
6	0x3c9eaa91	0.019368442
7	0x3d03918c	0.032121226
8	0x3d0014e3	0.03126992
9	0xbd8cdbde	-0.06877874
10	0x3d186bc3	0.037212145
11	0x3dbfed0c	0.09371385
12	0x3ded2e74	0.11581126
13	0xbdce2b1a	-0.10066815
14	0xbbed0cf7	-0.0072342115
15	0xbdad1814	-0.08451858
16	0x3dabdc4c	0.08391628
17	0xbdca7a69	-0.09886629
18	0x3dd78086	0.10522561
19	0xbd935d95	-0.07195584
20	0xbd8a0f84	-0.067412406
21	0x3d23aa47	0.03995731
22	0xbd1283a7	-0.035770085
23	0x3da9ed45	0.08297209
24	0x3d94c5f6	0.072643206
25	0x3da7e37f	0.08197688
26	0xbc244bf2	-0.010027872
27	0x3c8c5050	0.01712814
28	0x3bb91c71	0.0056491424
29	0x3d10fb86	0.03539612
30	0xbd1013e6	-0.035175227
31	0x3d55e038	0.052215785
32	0xbdea540b	-0.11441811
33	0x3dd4765f	0.1037414
34	0x3d5b77a3	0.05358089
35	0x3dfea6ef	0.12434184
36	0x3e1fab36	0.15592656
37	0x3c0e383d	0.0086804
38	0x3d9e3b3c	0.07726142
39	0xbd88f653	-0.066876076
40	0xbb24a4f6	-0.0025122738
41	0xbda28e83	-0.07937338
42	0x3d11c911	0.035592142
43	0x3dbb92a3	0.09158828
44	0xbd1c6158	-0.03817877
45	0x3d05fd7c	0.032712445
46	0x3c96700f	0.01836398
47	0x3d8d3cf1	0.06896389
48	0x3c8381fd	0.016053194
49	0xbd092a29	-0.033487473
50	0x3cdf202f	0.027237026
51	0xbdc0e187	-0.09418016
52	0x3dbbf6d9	0.09177942
53	0xbda18876	-0.07887356
54	0xbd8cdc14	-0.06877914
55	0xbca35a34	-0.019940473
56	0x3d1486ae	0.036261253
57	0x3cc59ce8	0.02412267
58	0x3ddcaaef	0.107747905
59	0x3db54c28	0.08852416
60	0x3de6d3b1	0.11270846
61	0x3c0ac610	0.008470073
62	0xbdce7cae	-0.100823745
63	0x3e1bb97b	0.15207474
64	0xbbe77e88	-0.0070646442
65	0xbd8cf011	-0.068817265
66	0xbd88a9ce	-0.06673013
67	0x3c36373c	0.011121567
68	0xbd8c1b31	-0.06841124
69	0x3ccede62	0.025252525
70	0x3d897fe3	0.067138456
71	0xbd9bf062	-0.07614209
72	0xbc8a7eeb	-0.016906222
73	0xbcc1282c	-0.023578726
74	0xbd246e39	-0.04014418
75	0x3d0cb1bb	0.034349184
76	0x3d975885	0.07389931
77	0xbd01ac27	-0.031658318
78	0x3ca194b8	0.019724235
79	0x3d2c4c06	0.04206469
80	0x3df6de05	0.120540656
81	0x3d0f3dda	0.034971096
82	0xbd99ba44	-0.075062305
83	0xbd09b614	-0.03362091

fc3.weight f4 [3, 84]
0	0x3e02a615	0.12758668
1	0xbe324f71	-0.17413117
2	0xbdb578fb	-0.08860966
3	0x3d8cd1ff	0.06875991
4	0x3c389f6c	0.011268478
5	0x3c861970	0.016369551
6	0x3d778d8a	0.060437717
7	0xbca3c854	-0.019992985
8	0x3d9ff900	0.07811165
9	0x3db95eb5	0.09051267
10	0x3dd7e9e0	0.10542655
11	0xbe2ba6ab	-0.16762798
12	0xbe838823	-0.25689802
13	0x3dc7cd03	0.097559
14	0xbdb3428a	-0.08752926
15	0x3e03a574	0.12856084
16	0x3a920951	0.0011141693
17	0x3d99a4a7	0.07502108
18	0xbdcb4d6e	-0.09926878
19	0xbd80beba	-0.06286378
20	0xbb7d3fdf	-0.0038642806
21	0x3d99e9df	0.075153105
22	0xbcd8b792	-0.02645472
23	0xbd341bcf	-0.043971833
24	0xbc061b2a	-0.008185187
25	0xbe416a2d	-0.18888159
26	0x3dadefa2	0.08492972
27	0xbbf3a4f2	-0.0074354345
28	0x3d12589b	0.035729032
29	0xbc36696c	-0.011133533
30	0xbdc53bb9	-0.09630532
31	0xbe61df21	-0.22057773
32	0x3d9e24f4	0.07721892
33	0xbd88a069	-0.06671221
34	0xbe313733	-0.17306213
35	0xbe3350b4	-0.17511255
36	0xbe429bc2	-0.1900473
37	0xbd37995e	-0.044823997
38	0xbcbe9df4	-0.023268677
39	0xbd6c1f65	-0.057647128
40	0xbb4052d6	-0.002934625
41	0xbdc27d00	-0.09496498
42	0xbe83b156	-0.25721234
43	0xbe22aec6	-0.15886983
44	0x3e02396d	0.12717219
45	0xbcdc585a	-0.026897598
46	0xbd3efae4	-0.046625987
47	0xbdff7e5d	-0.12475274
48	0x3dbf2951	0.09334052
49	0xbdaba19b	-0.08380433
50	0x3de3dc0b	0.11125954
51	0x3e0e35aa	0.13887659
52	0xbe3ef67f	-0.18648718
53	0x3d8d7c5f	0.069084875
54	0xbe1f04ed	-0.15529223
55	0xbd937c1e	-0.07201408
56	0xbc369cef	-0.011145814
57	0x3dac68f6	0.08418457
58	0xbccc5661	-0.024943532
59	0xbe5c43b0	-0.21510196
60	0xbe0dae4a	-0.13836017
61	0x3c8f29ea	0.01747604
62	0xbdb0845a	-0.08618994
63	0xbe6fbb22	-0.23411229
64	0x3d789842	0.06069208
65	0x3e0748fa	0.13211432
66	0xbd82ba1d	-0.063831545
67	0x3d573700	0.052542686
68	0x3d7f8640	0.06238389
69	0x3da7706d	0.081757404
70	0xbe6fa08d	-0.23401089
71	0x3d604e34	0.05476208
72	0xbda33c11	-0.07970441
73	0xbda14aa2	-0.07875563
74	0x3bdadb76	0.006678994
75	0x3de16874	0.11006251
76	0x3d190fb6	0.0373685
77	0x3c884c7f	0.016638039
78	0xbde209e7	-0.11037045
79	0xbe63b66d	-0.22237559
80	0xbd45cf73	-0.048293542
81	0xbcef8f1a	-0.02924304
82	0xbd34fbbd	-0.04418539
83	0x3c8411d4	0.016121782
84	0xbce0af9e	-0.02742749
85	0x3dceeed1	0.10104144
86	0xbd047b69	-0.032344256
87	0xbdafe3b3	-0.08588352
88	0xb6d1e0e0	-6.2548643e-06
89	0xbd7bf61a	-0.061513998
90	0x3d1f24cb	0.038853448
91	0x3d31cee0	0.043410182
92	0xbde9a2de	-0.114080176
93	0xbd522752	-0.05130703
94	0xbbdf3063	-0.006811188
95	0xbced3537	-0.028956039
96	0x3e0061a2	0.12537244
97	0xbddec60a	-0.10877617
98	0xbce91e7b	-0.028456917
99	0xbd60d624	-0.05489172
100	0x3ca6808d	0.02032497
101	0x3c06638e	0.008202447
102	0x3dd959b4	0.10612813
103	0x3dcd2c83	0.100182556
104	0xbcd97176	-0.02654336
105	0x3d3b70bd	0.045761812
106	0xbdb90591	-0.09034265
107	0x3de55b06	0.11199002
108	0xbd8b42a9	-0.06799824
109	0xbddde02f	-0.10833775
110	0xbe0cca70	-0.13749099
111	0xbd249e38	-0.04018995
112	0xbdb6c474	-0.08924189
113	0xbdb06443	-0.086128734
114	0xbda537c6	-0.080672786
115	0x3c585e0b	0.013206015
116	0x3c01deaf	0.007926627
117	0xbd81d804	-0.0634003
118	0x3dc82a60	0.097737074
119	0x3cd4ad78	0.025961623
120	0x3d8b2ec7	0.067960314
121	0xbe00c86a	-0.12576452
122	0x3e072a02	0.13199618
123	0x3d320127	0.04345813
124	0xbd696e06	-0.056989692
125	0xbca8b795	-0.020595351
126	0x3def0562	0.116709486
127	0x3bbe2b64	0.0058035124
128	0xbd871720	-0.065962076
129	0xbd7bb4be	-0.061451666
130	0x3dafa479	0.085762925
131	0xbdc98778	-0.09840292
132	0xbd85b1b5	-0.065280356
133	0xbddcddda	-0.10784502
134	0xbd154184	-0.036439434
135	0xbdc1bbb3	-0.09459629
136	0x3dc10d79	0.09426398
137	0xbc33ff9a	-0.010986233
138	0xbd61b556	-0.055104576
139	0xbcc59253	-0.024117624
140	0x3e32a4c2	0.17445663
141	0xbd3f3531	-0.046681587
142	0x3dadb142	0.08481075
143	0xbde74b27	-0.11293631
144	0x3e202f1f	0.15642975
145	0x3da56dfe	0.0807762
146	0x3d47123e	0.04860138
147	0x3dd612a0	0.10452771
148	0xbdbae043	-0.09124806
149	0xbd24d7cb	-0.04024486
150	0x3cae1bbb	0.021253457
151	0xbd593e97	-0.053038206
152	0x3c8b1b7f	0.016980885
153	0x3d76bf95	0.0602413
154	0x3d6db513	0.058034014
155	0x3db7096c	0.08937344
156	0x3d440210	0.04785353
157	0xbdbfd74d	-0.09367237
158	0xbdc11721	-0.094282396
159	0x3d86bed4	0.06579366
160	0x3dfb36aa	0.12266286
161	0xbc480c4e	-0.012209965
162	0xbc3e10f4	-0.011600722
163	0x3d03e78c	0.032203242
164	0xbbdab935	-0.0066749104
165	0xbd86ad96	-0.06576078
166	0xbd2b34ab	-0.041798275
167	0x3d54d56f	0.05196136
168	0xbd2994a7	-0.04140153
169	0x3dbf5772	0.09342851
170	0xbdf11d77	-0.11773198
171	0x3dd70e46	0.10500769
172	0xbde0255b	-0.10944625
173	0xbdaf1556	-0.085489914
174	0xbe0178f3	-0.12643795
175	0x3cc6915a	0.02423923
176	0xbd313019	-0.04325876
177	0x3c157d27	0.009124077
178	0x3df37e4d	0.11889324
179	0xbcc18659	-0.023623632
180	0x3dbdec3a	0.09273572
181	0xbcfef1b4	-0.031121112
182	0x3cc5d098	0.024147317
183	0x3d4b5b25	0.04964747
184	0x3e07ac0d	0.13249226
185	0x3c5f02df	0.013611524
186	0xbd758906	-0.05994513
187	0x3db20dfc	0.086940736
188	0xbd5e0d26	-0.054211758
189	0xbdf8994a	-0.121386126
190	0x3c7cb079	0.015422934
191	0xbdb19103	-0.08670237
192	0x3d4460ce	0.047943883
193	0x3da2f175	0.079562105
194	0xbd834cab	-0.06411108
195	0x3da51f17	0.080625705
196	0xbdad7498	-0.08469504
197	0xbd8317a6	-0.06400995
198	0x3c8428ff	0.01613283
199	0x3d16d3d8	0.036823124
200	0x3b92f0c3	0.0044842674
201	0x3e0a3c27	0.13499509
202	0x3d1b8efa	0.03797815
203	0x3df5f169	0.12008936
204	0xbd9a306d	-0.07528768
205	0x3d2e124a	0.04249791
206	0xbc88a608	-0.016680732
207	0xbcd9f5da	-0.026606489
208	0xbe00bcf7	-0.12572084
209	0x3d4beb99	0.04978523
210	0x3db3a3e2	0.087714925
211	0xbe19d717	-0.15023457
212	0xbca7ed5a	-0.02049892
213	0x3d8ca2f4	0.06867018
214	0xbda214a5	-0.07914094
215	0x3c9e4383	0.019319301
216	0xbc165333	-0.00917511
217	0xbc28a33f	-0.010292827
218	0xbe01d71d	-0.12679715
219	0xbd358d00	-0.04432392
220	0x3dd6ca12	0.104877606
221	0xbcb6c93a	-0.02231275
222	0x3c31ec17	0.010859511
223	0xbb156130	-0.0022793524
224	0xbe38ff1b	-0.18066065
225	0xbdaf0d3d	-0.08547447
226	0xbda4d265	-0.08047942
227	0x3d5fb92f	0.054619964
228	0xbde466ea	-0.11152442
229	0xbe0f7e8a	-0.14013115
230	0x3d835cc4	0.06414178
231	0x3e0a5c69	0.13511814
232	0xbc8389da	-0.016056944
233	0xbdb65a30	-0.08903921
234	0x3d9c929f	0.07645153
235	0x3d980dcb	0.07424506
236	0xbd7c8e6c	-0.06165926
237	0xbde6c856	-0.1126868
238	0xbcb0f73a	-0.021602262
239	0xbccb6197	-0.024826808
240	0xbd614fd8	-0.055007786
241	0xbc680a9c	-0.014162686
242	0x3c731440	0.014836371
243	0xbe0332d7	-0.12812363
244	0xbc949d57	-0.018141432
245	0x3dae943a	0.08524366
246	0x3d60bca7	0.054867413
247	0x3db34aca	0.08754499
248	0xbe12502c	-0.14288396
249	0x3cebf464	0.028803058
250	0x3d183893	0.03716333
251	0x3d9bde0c	0.076107115

fc3.bias f4 [3]
0	0xbd3e5ad4	-0.04647334
1	0x3d75a038	0.05996725
2	0xbd6e525a	-0.058184005
