neuralnetwork/soilclassifier/soil_net.pth (torch, 249222 bytes, 10 tensors)

conv1.weight f4 [6, 3, 5, 5]
00000000: 8434 01be bb00 c7bc 6878 2f3d d466 643d
00000010: 0bb2 9dbd 1abd 0f3d 4977 91bc 02dc fbbc
00000020: 0131 4a3d f7a3 e9bd b9eb c6bd 47e2 463d
00000030: 3316 babd 8cab 0bbe 8cdd a6bc 24f2 063d
00000040: 556a bbbd 0c2a 81bd 734e 2dbd b3b0 873d
00000050: 7d9a fbbd 8230 e6bd cc95 28bc 3556 f0bd
00000060: 960d 453c 7439 10be 4216 88bc f436 4b3b
00000070: 7d65 08be 7118 eabd 2155 dfbd 3e15 acbc
00000080: 12dd 993d d753 4bbd 256f f0bd 2aa0 bb3c
00000090: 81cc 013c 35f2 b7bd c1f2 c2bd 48da cfbd
000000a0: f449 91bd 4fd2 84bd d11e 34bd d7fd f6bd
000000b0: 2909 bbbd 4c61 803d d9f8 c6bd 187c 0e3b
000000c0: 64f8 1fbc 8019 09be 7e63 c1bd d225 313c
000000d0: c035 b9bd e55f 9c3d 75e6 76bd dac6 2bbd
000000e0: 91f8 a2bc 8abd dbbd 1318 86bd ae85 f8bd
000000f0: 3262 abbd 9a33 a6bd 3cd4 d1bd 82d8 bebd
00000100: eb9b f4bd 867b ad3c d7b7 303d 68af 1abd
00000110: 09d8 f0bd b5ff c6bc eec6 853d 0300 28bd
00000120: 64cb 17bc 85e9 8bbc d329 f8bd 66f6 99bd
00000130: c560 e5bd c983 553d 6651 87bc ebbd 4a3d
00000140: 41e9 bfbc 5d11 4fbc 22be 1a3b 2a3e 80bd
00000150: 8a0f 1a3c 22d8 babd 14c4 9bbd 06b7 873d
00000160: 9fb2 b33d 2563 fbbd 6fbc a8bd 4efa a0bd
00000170: 6f69 ed3c d233 b53d ca0b 7ebd 4d4a 6cbc
00000180: b741 acbd 0f2a 7abd 3317 8e3d f3bd 06be
00000190: 4705 cd3c b67c 6ebd 13d5 aabd 820f 07be
000001a0: 9a30 debd 0687 28bd ab3c 3c3b 2697 04bc
000001b0: 75a2 8a3d 2bc5 ccbd c642 09be 1de0 76bd
000001c0: 90fc 9fbd 42a5 753c 5b0e c93d a4db debd
000001d0: fdae d23b 2f22 a8bd 094c fbbd 7f0a ddbc
000001e0: 8c19 ea3d 2986 e83d 75c4 18bd 32f1 a4bd
000001f0: 0c3c abbd f88d 82bc b3d6 5dbc f88c 70bc
00000200: ab28 8ebd 2c22 8d3d 4109 7dbd 09cb 203d
00000210: 629a 12bb ce81 433d 0b9a ab3d e085 60bd
00000220: dad3 b1bd 1880 a23d 340a bfbc 19c0 93bd
00000230: 88c8 58bd 813b 78bd ce9b 16bb 0a0f 14bc
00000240: 336a 08bc 7c4c fb3c f8b3 c73d b926 34bd
00000250: 2670 4c3d 4d43 aabd 8748 7cbd a0ad cdbd
00000260: b3e5 afbd fa4f debd 4a2c 2f3d 3b78 04be
00000270: 1589 a13d 4e12 ee3d 6e94 7e3d 89aa 1dbd
00000280: 20fb 3d3d 6a2d 7b3d 42fd a8ba 93d7 0a3d
00000290: 3c9f b2bd 8665 5b3d 8710 dabd 0e6e 553c
000002a0: 6d76 113d 6f35 13bd d0b3 633c c417 4fbc
000002b0: 914d f1bd 2699 b63d 913b dcbd dc20 b6bd
000002c0: 55a3 fa3d 72ed c23b 70a9 9ebd bb79 e6bc
000002d0: 1f8f 4e3d dafb 7eba 8e08 d03d 7f1a 883d
000002e0: 268e b4bc bf8f 1f3b 2799 9e3d 7c0d ce3d
000002f0: 7bf0 c13c 85b0 c8bd 4cce 093b e2c6 1d3d
00000300: e350 f0bc 89a7 d3bd f191 32bb d3ee c7bd
00000310: 3f14 6a3c d446 41bc 6b46 e23c 48e9 e9bd
00000320: 6906 edbb 9ecf ea3d 4b91 1bbd 703b e1bd
00000330: 04e8 2ebd 79c4 67bd 4295 24bc fa7e bd3d
00000340: f5b7 c0bd 7db0 3c3d e507 063e 5842 07bd
00000350: 5eaf 8a3d 9502 edbc 9092 a93d 1bc2 acbc
00000360: 332d a73d 8c7d e93d 16ad acbd 7da5 59bd
00000370: 4416 a2bc e402 e03d 652b ecbd b2b7 e83d
00000380: 0a0a 5a3d b5c5 1e3d b13b 103d de57 acbc
00000390: 0844 043e 8658 02bb 2b42 de3c ae2c 98bc
000003a0: 8ad6 403d d060 88bd 2e77 d6bb 22b8 fd3d
000003b0: fde1 8bbd 00bd 093e 9d8b 0a3e d003 a93d
000003c0: 007b 063c 207c d33d 7e26 de3d 7cd5 833d
000003d0: a0c4 113d b959 fa3d 7906 aa3c aefd e13d
000003e0: 7403 9ebd c4a8 cd3d b356 053e cc4e c23d
000003f0: 4f8a c43d 4675 db3d dcb6 83bd f237 03bc
-0.1261769 -0.02429234 0.042839438 0.055762127 -0.076999746 0.03509245 -0.017757075 -0.030744556
0.04936314 -0.11408227 -0.09712929 0.04855564 -0.090862654 -0.13639659 -0.020369314 0.032945767
-0.091511406 -0.06306848 -0.042311143 0.066254996 -0.12285326 -0.11239721 -0.010289621 -0.11735193
0.012027165 -0.14084417 -0.016612176 0.0031008096 -0.13319965 -0.11430443 -0.10904909 -0.021006223
0.07512869 -0.049640503 -0.11739949 0.02290352 0.007922293 -0.08981744 -0.09518958 -0.10149056
-0.070941836 -0.06485426 -0.0439747 -0.12060135 -0.091326065 0.06268558 -0.09715433 0.0021741446
-0.009763811 -0.13388634 -0.09442805 0.01081224 -0.09043455 0.07635478 -0.060278375 -0.041937687
-0.019893916 -0.10729511 -0.065475605 -0.121348724 -0.08368339 -0.08115311 -0.102455586 -0.09318639
-0.119438015 0.021177065 0.043144073 -0.037764937 -0.117599554 -0.024291852 0.065320835 -0.041015636
-0.009264801 -0.017079124 -0.12117352 -0.075177 -0.11200098 0.052127633 -0.016518306 0.049497526
-0.023426654 -0.012638417 0.0023611863 -0.06261857 0.009403119 -0.09123255 -0.07605758 0.06626706
0.08774304 -0.1227477 -0.08239066 -0.07860242 0.028980939 0.088477746 -0.06202296 -0.014422012
-0.084109716 -0.061075266 0.06938019 -0.13158397 0.02502693 -0.058224402 -0.08341422 -0.1318951
-0.10849114 -0.041144393 0.0028722684 -0.008092677 0.067692675 -0.09998544 -0.13404378 -0.060272325
-0.07811844 0.014993014 0.09817191 -0.10881737 0.0064295516 -0.08209645 -0.12270362 -0.026982544
0.11430654 0.11353714 -0.03729673 -0.08053817 -0.083610624 -0.015936837 -0.013539958 -0.014682047
-0.069413505 0.068912834 -0.061776403 0.03925613 -0.0022369851 0.047731213 0.08378991 -0.054815173
-0.086829856 0.07934588 -0.023320295 -0.07214374 -0.052925617 -0.060603622 -0.002298105 -0.009036789
-0.008326101 0.030676119 0.09751123 -0.04398224 0.04991164 -0.08313618 -0.061592605 -0.10042882
-0.085887335 -0.10855098 0.042766847 -0.1293649 0.078874744 0.11624585 0.062153272 -0.038492713
0.04638207 0.061322607 -0.001289286 0.033896994 -0.08721778 0.053563617 -0.106476836 0.013026727
0.03551333 -0.03593963 0.013897851 -0.0126399435 -0.11782373 0.089159295 -0.10753549 -0.08892986
0.12238184 0.005948716 -0.077471614 -0.028134217 0.05042946 -0.000972686 0.10157882 0.06645679
-0.022040438 0.0024347154 0.07744055 0.10061166 0.02367424 -0.097992934 0.0021027504 0.038519748
-0.029335445 -0.10334689 -0.0027247632 -0.09762349 0.014287054 -0.011796672 0.027621469 -0.11421448
-0.00723343 0.11465381 -0.03798036 -0.10997665 -0.042701736 -0.056583855 -0.010045351 0.092527345
-0.09410087 0.04606675 0.13088949 -0.033022255 0.0677173 -0.028931895 0.08279908 -0.02108865
0.08162918 0.11400899 -0.08431451 -0.053136338 -0.019786008 0.10938051 -0.11531714 0.11363162
0.05323223 0.038762767 0.035213176 -0.021037992 0.12916577 -0.001988919 0.02713116 -0.018575992
0.0470796 -0.066590905 -0.006544969 0.12388636 -0.06830213 0.13451004 0.1352982 0.0825268
0.008208036 0.10326409 0.108471856 0.06437203 0.035587907 0.122241445 0.02075504 0.11034714
-0.077155024 0.10041955 0.13021354 0.094876856 0.09596693 0.107157275 -0.06431362 -0.008008944

conv1.bias f4 [6]
00000000: bee8 7cbd 3aba 1f3d bcf1 173e 6a8b 80bd
00000010: 2d4c 50bc 5948 dd3c
-0.061745398 0.03899596 0.14838308 -0.06276591 -0.012713474 0.027012037

conv2.weight f4 [16, 6, 5, 5]
00000000: c7d1 1abd 32ee 333d b18b 92bd 5fdc 8ebd
00000010: 3f7c b1bd b3fa 41bd 9be5 36bd d1f1 803d
00000020: b667 0dbc f591 473d 808e 153d 04ca 03bd
00000030: 47d4 dbbc 1398 d0bd 42a5 d6bd bfd4 c73c
00000040: a275 96bc a41a 91bc 24a8 9fbd cbc1 733d
00000050: e4d5 863a 8bfa 383d 4724 bcbc 806f d33c
00000060: 2fe7 bebd b1f3 5b3d 71ed 0b3d 825b a3bc
00000070: 46e4 8b3c c1de c9ba a33c 783d fe1b 513d
00000080: 8807 cdbc 607c 51bd cfde 61bd 53ce 883d
00000090: d051 3fbc 1943 163d b315 6fbd bc9e 183d
000000a0: 1d21 acbb cf82 65bd f416 283d 21a7 633c
000000b0: 761e 8d3d 0094 82bd e47a eb3c ddc3 7f3c
000000c0: 08e3 0a3d 8959 2cbd d52e c23d 3fe5 c23c
000000d0: c6e8 683d 240f ab3d 903e 223d 7a37 fc3d
000000e0: 2c3a 083d 8f8b 2dbc 13d3 923c fff3 fc3c
000000f0: 6117 913d e718 923d b0c0 07bd 16a8 e93d
00000100: bf10 b43d 0078 cb3b ff58 ba3d c063 ab3c
00000110: e747 093e 95c0 0dba 3ed3 eb3d 2984 0e3d
00000120: 7268 bd3d 0308 a8bc 8454 99bc 181b 72bd
00000130: 879d 143d f965 08bc 9fb8 d93b 9896 acbd
00000140: ee89 5a3d dc30 bebc d5b3 8f3d 1168 f73c
00000150: 4ed7 4b3d 98a3 7fbd 3b4c 8e3d 92d5 863c
00000160: 5eac 9cbb 30c0 5cbc 24f2 00bd 6065 7f3c
00000170: 1c05 0f3b df8f 9b3d c4a4 98ba 92d8 91bd
00000180: b12f 323d cede 9e3c a847 5abd 1281 6fbd
00000190: 1f34 823d ffc4 a5bb bcd0 ac3d 266a a43c
000001a0: a1fc 843c 2fbd 1d3c c4fe 043e 7b65 86bc
000001b0: 7dcf e83d 9304 113e 19ab 133e c610 ec3d
000001c0: 466b 693d accd 38bc 1dfc 4b3c 099c 383b
000001d0: f5a1 7c3d 0e17 0e3e ee10 1ebd 1f88 953d
000001e0: 0345 5c3c 2e32 74bc 82a7 083e bc6c 9c3d
000001f0: 7979 ea3d 3159 73bd 8d96 60bd 642f 033d
00000200: c031 f43c 1765 8f3d de2b 6cbd d4a5 00bd
00000210: 0498 02bd 9552 3dbd ff24 67bd 3636 7fbd
00000220: 317f 5d3d 5471 be3d ceff b83d b9ce 953d
00000230: 2f24 6ebb 6606 883d a8c9 1b3a a63f 37bd
00000240: 6fb1 2bbd 8966 863d a304 653d 0a65 803d
00000250: 01c3 35bc c6d2 ae3c 0fae 78bd 9405 3b3c
00000260: 0549 7fbd 450c 683d 871f f63c 5515 983d
00000270: f6c1 29bd 5c62 a43c e98e 63bd 2c63 3d3d
00000280: 9990 08bd 3632 123c 1961 753d 2cb3 453d
00000290: a755 d2bd 433d 80bd 8e76 813d c34e 9fbd
000002a0: c7e4 eabc 7655 4b3d 0b0e 9abd 66e0 acbd
000002b0: bc2e 85bd d2f8 6a3d be06 c0bd 110e 85bd
000002c0: 8314 adbd 54dd 2dbd d9b5 7dbd a973 933d
000002d0: 299a 49bc e1af 713d d348 b03c 9413 07bd
000002e0: 98c7 abbd e3f7 f03b 1b5f 6c3d 5bb5 2ebd
000002f0: b474 fb3c 9714 a8bd ed39 e6bc 8178 163d
00000300: 7fb9 88bd 6914 713d d5c4 a8bd 35fc 8fbc
00000310: f705 85bd 386a 8a3c a503 babb b07f 8cbd
00000320: 48ae 5abd 873a ea3b 7e03 dabb c815 a33d
00000330: f227 ff3c bd36 223d 582d 1fbd bb62 603b
00000340: 7409 1f3d df4c 403d 887e 243d f7b0 2abd
00000350: 616f 62bd 3ef3 933d 1764 39bd b90c 12bd
00000360: 137f 113d 4059 75bc f2db 5abd bc98 1d3d
00000370: 89f4 a13c 3762 1e3d a631 6fbd 2c52 023d
00000380: eecb 00bc 374d f03c c763 02bd 4e82 1fbd
00000390: be00 963d a64f 97bb fb1f b93d 0e00 483b
000003a0: cb3b 50bd 9ea8 21bd a700 b83d 5407 bd3c
000003b0: c28b 223d 936a 813d 943c ab3d fc3d 363d
000003c0: 87fe b13d a6a3 9f3d b3d6 aa3d 219f 88bb
000003d0: ce4f d33d 5f69 323d 5f99 d7bc 4bc6 2fbd
000003e0: 9bba cb3d ed54 323d 6866 18bc 01b5 383d
000003f0: 2dc0 763d 3261 983d c259 79bd 2f35 bd3d
-0.037797716 0.043928333 -0.0715555 -0.06975626 -0.08666276 -0.047358226 -0.044652563 0.06296123
-0.008630684 0.04872318 0.03651285 -0.03217508 -0.02683462 -0.10185256 -0.10480739 0.024393437
-0.018366639 -0.017712899 -0.07795742 0.059510987 0.0010287133 0.04516081 -0.022966517 0.025810003
-0.093214385 0.0536992 0.03416199 -0.019941095 0.017076623 -0.0015401469 0.060604703 0.051052086
-0.025028005 -0.051144004 -0.055144127 0.06679978 -0.01167722 0.036685083 -0.058370303 0.037260756
-0.005252971 -0.056032952 0.041037515 0.013894827 0.068905756 -0.06375885 0.028745122 0.015610662
0.03390792 -0.042077575 0.09481589 0.023790954 0.056862615 0.08352497 0.039610445 0.12315269
0.033258602 -0.010592355 0.017922914 0.030878065 0.07084537 0.07133656 -0.033142745 0.11409013
0.087922566 0.0062093735 0.09099006 0.020921588 0.13406335 -0.000540742 0.115149006 0.034794006
0.09248437 -0.020511633 -0.018717058 -0.05910787 0.036283042 -0.008325093 0.006644323 -0.08427161
0.053354196 -0.023216657 0.07016722 0.03020099 0.049765877 -0.062411875 0.069481336 0.01645926
-0.00478129 -0.013473555 -0.031480923 0.0155881345 0.0021823114 0.075958006 -0.0011645784 -0.07121386
0.043502513 0.01939335 -0.053290993 -0.0584727 0.063575976 -0.005058884 0.084382504 0.020070147
0.016233744 0.009627624 0.1298781 -0.016405812 0.113677 0.14161901 0.14420737 0.11526637
0.05698707 -0.011279505 0.012450245 0.0028169176 0.06167789 0.13875982 -0.038590364 0.07301354
0.013444188 -0.014904542 0.13345149 0.07637927 0.1144895 -0.05941123 -0.054831076 0.032027617
0.029808879 0.07001703 -0.057659023 -0.031408146 -0.031883255 -0.046221334 -0.056431767 -0.06230756
0.054076377 0.092989594 0.09033166 0.0731482 -0.0036337485 0.066418454 0.000594283 -0.044738434
-0.04191726 0.06562526 0.055912625 0.06269272 -0.011093856 0.021340739 -0.06071287 0.011414904
-0.062325496 0.056652326 0.03004433 0.07425944 -0.04144474 0.020066433 -0.05555621 0.046237156
-0.033341024 0.008923104 0.059907053 0.048266575 -0.10270243 -0.06261685 0.06321441 -0.077786945
-0.028673543 0.04964205 -0.0752221 -0.08441238 -0.065030545 0.0573662 -0.09376286 -0.064968236
-0.08451178 -0.042447403 -0.061941 0.07199795 -0.012304821 0.05900562 0.0215191 -0.032977656
-0.08387679 0.007353769 0.057707887 -0.042653423 0.030695297 -0.08207052 -0.028103793 0.036736015
-0.066760056 0.058857355 -0.08240668 -0.017576316 -0.06495278 0.016896352 -0.005676704 -0.06860292
-0.053388864 0.0071480903 -0.0066532483 0.07963139 0.031146977 0.039602984 -0.038861603 0.0034238535
0.038827375 0.04694831 0.040159732 -0.041672673 -0.055282 0.07224129 -0.04526147 -0.035656665
0.035521578 -0.014974892 -0.053432412 0.038475737 0.019769924 0.038667884 -0.058396958 0.031816646
-0.007861121 0.029333694 -0.031833436 -0.038942628 0.0732436 -0.004617649 0.09039303 0.003051761
-0.050838273 -0.039467447 0.089844994 0.023074783 0.039684065 0.063191555 0.08361164 0.044492707
0.08691125 0.07794885 0.08341732 -0.0041693603 0.10317956 0.04355752 -0.02631825 -0.042913716
0.099477015 0.043538023 -0.009301759 0.045094494 0.060241867 0.074404135 -0.060876615 0.092386596

conv2.bias f4 [16]
00000000: ace1 4fbd b285 a43d c1be b53d 01b5 813d
00000010: f10c d0bc 3462 4fbd 4cdf af3d e6e9 a23c
00000020: 232f 2c3c df6d 3ebd 00ba a43d 7692 d4bc
00000030: a551 6f3d a6ed 1fbd 9b82 893c 26a1 a9bd
-0.050752327 0.08033313 0.08874274 0.06333352 -0.025396796 -0.050630763 0.085875124 0.019886922
0.010509285 -0.0464915 0.08043289 -0.025948744 0.05842747 -0.039045 0.01678591 -0.0828269

fc1.weight f4 [120, 400]
00000000: ef5d db3b b3eb 523c 658e ae3c d8f5 303d
00000010: 2a1b b83c fdd5 693d b95d 813b 9bcb 343b
00000020: 1e4b 9a3d 756b 513d 5c50 213d 6213 bc3a
00000030: ab34 993b 12d1 873d 6344 b23d 0971 903d
00000040: 665d f93c b873 5c3c 0afd bb3c fff5 b13d
00000050: ac19 a5bb 2020 7b3d 0413 823d ae5f fa3c
00000060: 91ac a23d ad9a 9eba bc16 ae3c 6616 2c3d
00000070: b645 1e3c 33a3 9f3d 8b16 8f3a d479 fa3c
00000080: c210 793d 8df7 783c fa57 973c 297d 863d
00000090: d681 6f3d 45c7 40bc f920 873d 1970 3b3d
000000a0: e7c0 3b3c db3e e63a d9f6 063d 41fe a43d
000000b0: 4acf 263d 6104 cb3c eb8b 2a3d 91f8 8dbc
000000c0: 21cf a23d f8e5 393c fc80 c1bc 846e 233d
000000d0: 3d55 503d 2e8b 02bc 7f8b fc3c cfda 3f3d
000000e0: e083 1dbc e146 493d ad4c 533d 0d8a 1b3d
000000f0: da02 293c 5d9d 1a3d 9eb9 e4bc f2ae 803c
00000100: 18cd 04bc 0466 d63c 225b cabb 4fba 263c
00000110: e4a9 c4bc 5ee3 9fbc d295 873c 4d46 183c
00000120: 95a4 92bb 9927 3a3c 155d 593d 665d 783c
00000130: ec50 52bd c7c7 1fbd 30d2 98bb ba43 1ebd
00000140: fe81 3ebd c8a2 0038 d0b7 42bd c46c e63c
00000150: 7d4f 793c e77a 80bd 370d 35bd 4e7e 6abd
00000160: cc33 af3c 9769 71bd 6328 1abd 27df 92bc
00000170: f843 c7bc dfcd bebc 210a 5fbd 8b04 4ebd
00000180: 1754 31bd 5c4e 923c 14d9 41bd 6eb9 653b
00000190: 8a2b 3b3d 510e 0fbd a1b8 b1bb e14c 00bd
000001a0: feaf 193d b8ef 283d d499 c1ba c346 26bd
000001b0: 04a0 6cbc 2ad0 003d e45e e53c e045 ef3c
000001c0: a539 583c b182 6b3d 7122 ac3c a65d 1c3d
000001d0: e2f3 283d 69d8 923d 8141 043c 096c a43c
000001e0: 9f4b 023d ac20 933c 7db7 653d 55b0 ff3c
000001f0: f10b 5f3d 6ceb 123d 0713 073c eb8f 923d
00000200: 1cc5 a83d 02f3 783d 240c 7c3d f15c 623d
00000210: d66b c23d ddb3 3b3b 581d 9c3d e924 153c
00000220: fb59 f43c 6ca8 893d d8eb 9b3d 4d55 bd3d
00000230: 828a 2e3b fe6b 9b3c 00e4 b63d 0103 d33c
00000240: 9fab 2f3d 7aed 05ba f84b 953a 3361 083d
00000250: 71e4 973d f067 573d 955b 87bc 5fd4 073d
00000260: c40e 9bb9 bc04 433b 2177 1bbc 637b 8c3c
00000270: c35a 293d a38c 35bd a6e3 82bc a781 233c
00000280: ae87 7ebc b63c 8a3c 43cf 333c 764a 0f3d
00000290: f1b1 f9bc fed1 37bd 78ae 6cbd 26c7 983b
000002a0: 7dab 103b d13e 40bd 384e 4bbd 5540 71bd
000002b0: 6094 693c 3ae3 56bd 442d d0bc b558 263c
000002c0: 1674 103c 9a08 8abd 62d5 193b f040 c3bc
000002d0: 497a c23c 294b a63b aa6d 39bc 7059 6abd
000002e0: 5b60 6abd c81f dfbc c414 fcbc b260 98bb
000002f0: a550 b83c e762 26bd 5650 59bc f831 d13c
00000300: 5690 1cbd a923 e5bc 4a95 dabb dd62 a0bd
00000310: c2cf 34bd 2355 f2bc db53 6bbd 37a2 e4bc
00000320: ad6b 153d 3f91 093d 9c1d 8b3c 743f 443d
00000330: ec05 b1bc 8180 8d3c c798 a4bc b2fe 753c
00000340: 7dcc cbbc 109d 703d b4ef 8fbc 41b8 2d3d
00000350: 9325 a93c 8104 863c 6e0b 73bb 040e 083d
00000360: 0cf8 893d 63d9 ab3c 01d1 5d3d fae4 423d
00000370: a2a0 98bc 2ec6 6cbb a237 003d e754 11bd
00000380: 99f4 eabc 7ec7 82bc 4111 24bd 32f6 0ebd
00000390: 619a 1b3d ef35 553d 31aa 9dbb f71a cebc
000003a0: c2f0 edbb e029 18ba ba7b a13b 151a 453d
000003b0: 86a3 1cbc 77ec 85bb 1343 55bd 8b18 a2bb
000003c0: 90a3 d93c fa1c ee3c d3d7 b43c bbd6 1abd
000003d0: 6938 033d 2bec 16bd 699a b13c 3fca 1d3d
000003e0: a14c f73c 1a19 2cbd 080a b33c b4ba 073d
000003f0: 39a9 e2bb e9b6 67bd 8dd9 46bc 2855 ca3b
0.0066945474 0.012873578 0.021308133 0.043203205 0.02247389 0.05708884 0.00394794 0.0027587179
0.07533859 0.05112787 0.039383277 0.0014349038 0.004675468 0.06631674 0.0870445 0.0705281
0.030440044 0.013455324 0.022947807 0.08689498 -0.0050384607 0.061309934 0.06351283 0.030563202
0.07943071 -0.001210054 0.021251075 0.04201355 0.009660175 0.077948 0.0010916753 0.03057567
0.060806997 0.015195739 0.018474568 0.06566841 0.05847343 -0.01176626 0.06598086 0.0457612
0.011459566 0.001756634 0.032950256 0.080563076 0.04072503 0.024782361 0.041637342 -0.01733044
0.07949663 0.011346333 -0.023621075 0.039900318 0.05086254 -0.007967753 0.030828236 0.04683953
-0.009613961 0.04913986 0.051586796 0.037973452 0.010315621 0.03774773 -0.02792054 0.01570842
-0.008105539 0.026171692 -0.0061754147 0.010176255 -0.024006791 -0.019517597 0.016550932 0.009294105
-0.004475186 0.01136198 0.053067286 0.015158987 -0.051346704 -0.039008882 -0.004663728 -0.038638808
-0.04651069 3.066918e-05 -0.04753858 0.028128035 0.015216705 -0.06273442 -0.044202056 -0.05724936
0.021387003 -0.05893859 -0.037636172 -0.017928673 -0.024324402 -0.023291526 -0.05445302 -0.0502973
-0.043293085 0.01785963 -0.047326162 0.0035053152 0.04569582 -0.034925763 -0.005423621 -0.031323317
0.037521355 0.04124424 -0.0014770576 -0.040594827 -0.014442448 0.03144852 0.027999349 0.029208124
0.013197337 0.057497684 0.021012517 0.038175248 0.04124821 0.07170183 0.008072258 0.020071046
0.0318104 0.017959915 0.05608319 0.031212011 0.054454748 0.035869047 0.008244283 0.071563564
0.08240721 0.060778625 0.061535016 0.055264417 0.09493224 0.0028641142 0.076227844 0.009103038
0.029828062 0.06721577 0.07613343 0.092447855 0.002663285 0.018972393 0.08930206 0.025758268
0.04288828 -0.0005108934 0.0011390438 0.03329582 0.074166186 0.052589357 -0.016523162 0.033161517
-0.00029574905 0.002975746 -0.009488852 0.01714868 0.041346323 -0.044323575 -0.015977692 0.009979642
-0.015535278 0.016874652 0.010974708 0.03498312 -0.030480357 -0.044878 -0.057783574 0.004662412
0.0022074871 -0.046934906 -0.049635142 -0.058899242 0.014256567 -0.052462794 -0.02541221 0.010152985
0.00881674 -0.06739922 0.0023473133 -0.023834676 0.02373995 0.0050748778 -0.01131765 -0.0572142
-0.057220798 -0.027236834 -0.03077162 -0.004650199 0.022499392 -0.040621664 -0.0132637825 0.025536522
-0.038223587 -0.027971106 -0.0066706287 -0.07831357 -0.044143446 -0.029581612 -0.057453018 -0.027909381
0.03647964 0.033585783 0.016981892 0.047912076 -0.02160927 0.01727319 -0.020092381 0.015014337
-0.024877781 0.058743536 -0.017570354 0.042412046 0.0206478 0.01635957 -0.003708567 0.03321649
0.06736764 0.020977682 0.0541544 0.04758165 -0.018631283 -0.0036128866 0.031303056 -0.03548136
-0.028681086 -0.015964266 -0.040055517 -0.03490276 0.037989024 0.05205339 -0.004811548 -0.025159342
-0.0072613666 -0.00058045797 0.0049280794 0.048120577 -0.009560471 -0.0040870267 -0.05206592 -0.0049467734
0.02656725 0.029066551 0.02207557 -0.03780244 0.03203622 -0.03684632 0.021680074 0.038522955
0.030187907 -0.042016126 0.02185537 0.03313704 -0.0069171456 -0.05657092 -0.012136829 0.006174702

fc1.bias f4 [120]
00000000: ddd6 433c f80f 833c d431 67bc 71db 52bd
00000010: 68b5 a63c 354d 55bd 5fba 5c3d 1208 4ebd
00000020: ce22 2d3d ec20 15bd 5df5 94bc a390 80bc
00000030: edea 00bc f342 0dbd 3315 1ebb 03c7 9b3d
00000040: 95c2 243d ded2 24bd a53e bfbc 6750 163d
00000050: c9f4 01bd 16ee c83b bd0a 50bd a967 06bd
00000060: 5bef 2bbd 2317 55bc 9191 283d 24d0 2a3c
00000070: 157a 2ebd 8520 3fbd 7afc 2a3c 1aa4 6cbd
00000080: 8541 073d d7e5 89bc c9eb eabc 1ebf 29bd
00000090: 37d2 2ebd d023 bb3b b78d abbb 90c5 c0bb
000000a0: d369 913a de88 81bc 1ccb 223d bdd5 833c
000000b0: 1bfa 82bc c41b 343c 28d2 11bd 7359 3abd
000000c0: c65d 6e3c eaed 39bc c796 98bc 9954 473d
000000d0: 6ff5 223d 9b41 9ebb eaaa 2cbc 209c 193d
000000e0: 7537 40bc 24f3 a5bc c056 9fbc 80be 3a3d
000000f0: f75a 64bd 1a3d bf3b 090c d0bc c735 3fbb
00000100: 102a 29bd 6e75 7f3c b335 f8bb 7a7c 823d
00000110: ed82 12bd 12d7 35bd e48f 1ebd 45ad 04bc
00000120: e17d 3dbc f422 c9bb 9f7a f73c fdd3 67bc
00000130: a6d4 703d 74c4 30bd 2c08 e1bc cdbd 05bd
00000140: fca5 cabc 9b96 47bc dda9 7c3d 3733 8f3c
00000150: e5b6 60bd c83f 223d b4cb 15bc 3254 ab3b
00000160: aaa6 8bbc 66d3 02bd 1aad 72bc b1ad 76bc
00000170: f68c 493d 3f9a 393d 17a9 253c fe25 373d
00000180: 7ef5 2a3d 9f55 06bd 9ff0 f23c 6747 66bd
00000190: 2031 09bd 0d0a 40bd 209e 51bd 05fb c73c
000001a0: 42ee 373d 9f56 e23b 03c4 c5bc 0064 143d
000001b0: b611 ad3c bf06 ee3b 2a0f 24bc 9807 19bd
000001c0: db64 d0bb 20f2 0d3c b694 333d 722d 563c
000001d0: acf6 ff3c 82bb e1bc 239e 35bc 30d5 433d
0.011953083 0.015998825 -0.014111001 -0.051478807 0.020350173 -0.052075583 0.053888675 -0.050300665
0.04226952 -0.03640835 -0.018183405 -0.015693968 -0.007868511 -0.034487676 -0.0024121522 0.07606318
0.04022463 -0.04024016 -0.0233453 0.03669777 -0.031727586 0.0061318977 -0.05079149 -0.0328137
-0.041976314 -0.0130060045 0.041154448 0.010425601 -0.042596895 -0.046661872 0.010436172 -0.057773687
0.03302147 -0.016833229 -0.028676884 -0.04144203 -0.042680945 0.0057110563 -0.0052353996 -0.0058829263
0.001109416 -0.015812334 0.03974448 0.01609313 -0.0159884 0.010992948 -0.03560081 -0.04549546
0.0145487245 -0.011348227 -0.018626584 0.048664663 0.039784845 -0.004829598 -0.010538796 0.037502408
-0.011731972 -0.02025754 -0.019450545 0.04559183 -0.055750813 0.0058361413 -0.025396364 -0.002917634
-0.04129988 0.015591962 -0.007574761 0.06371398 -0.03576939 -0.04439456 -0.038711444 -0.008097951
-0.011565656 -0.0061382 0.030209837 -0.014149663 0.058796547 -0.043156102 -0.027469717 -0.03265171
-0.02473735 -0.012181903 0.06168543 0.017480476 -0.05486192 0.039611608 -0.009142805 0.0052285427
-0.017047245 -0.031939887 -0.014811778 -0.01505606 0.049206696 0.045313116 0.010111115 0.044713967
0.041738026 -0.0327965 0.029655753 -0.05622044 -0.033494115 -0.046884585 -0.05117619 0.024411688
0.044904955 0.0069072987 -0.024141317 0.03622818 0.02112661 0.007263988 -0.010013381 -0.037360758
-0.006359679 0.008663684 0.043842994 0.013072358 0.031245552 -0.027555231 -0.011085066 0.047810733

fc2.weight f4 [84, 120]
00000000: 5cd3 0c3d e0d9 163c 1f4f 583d b4ce 08bd
00000010: 2a8f 173d 4660 09bd bcf1 973d 6b13 d0bb
00000020: 6708 8b3d 9eb3 cd3d b646 a5bd 402c bbbc
00000030: f541 123d b8bf 2a3d b6a7 5cbc d163 d3bd
00000040: e96d 2b3d 06a8 aa3d a4e0 a0bd beb7 debc
00000050: c784 d0bc 28cb a43d ebd4 973d 65bf 2bbd
00000060: b0e9 b13d 63e5 6dbd fca1 3f3d 8e56 ce3c
00000070: 781d 243c e09e 1dbd 752d ed3c ca58 c23a
00000080: 5737 12bd 6d1e 82bd 3062 423d 20bd 21bd
00000090: 498c cebd efc9 1c3d dce3 3b3d 7a92 6fbd
000000a0: b836 3a3b 2032 9e3d 992b 2e3d af8b c6bd
000000b0: 9e81 cd3c 2fdc 85bd 9a1c 883c 124c dcbc
000000c0: fb57 20bd 8f78 99bd d235 52bd 79f9 bdbd
000000d0: 34bc 77bb 39ce c9bb 3748 5ebd 18ad 63bd
000000e0: cb04 053d 8010 e23b 8c48 9e3d 77de 98bd
000000f0: df86 aa3d bbc3 acbd d7aa b33d a32a aabc
00000100: 0de7 913d 93dd 833d 3871 80bd e289 53bd
00000110: ce7f 183c 104c a13d 6055 33ba c4f2 9ebc
00000120: 8c5c 1c3d f68b 91bd 9cb8 913c c9af c23c
00000130: 6892 c6bd 50d6 053d 332f a43c 3bc3 2abd
00000140: c775 b7bd 7f85 7c3c a8ea d1bd b134 1c3c
00000150: eff6 88bc bd83 c3bb 7cbd af3d a8ad cdbc
00000160: 12f4 cdbc 2d3a 443d 9a65 9dbd fe0d 7bbd
00000170: 5478 a4bd 8258 19bd ef59 203c b601 c23c
00000180: 83a3 adbc 7915 4839 a118 35bd 913d 08bd
00000190: e7a1 f93c 1297 95bc 663a f5bb 0d6d 86bd
000001a0: 26cd a9bc c6db 573d b14e 9f3d 5bf6 bf3d
000001b0: 22b2 a7bd 5eb6 2c3d 634d 5c3d 4768 e1bb
000001c0: 786d 193d d7f8 533b efcf 4ebd 646f 5a3d
000001d0: fd7b a03d f7ec b5bd 188e a53c 66a9 bd3b
000001e0: d76b d53d 8b14 db3c 20b8 653d 35c1 ee3d
000001f0: bc41 71bc 2a64 56bd 7bdd 023e 341d 873d
00000200: 61fd 3f3d 21f4 6d3d e4bf c9bb 6bad 1abb
00000210: ca67 993b f60c b4bd acc6 74bb f306 833d
00000220: a04e 893d 7cd6 abbd f3da aabc 88c4 cb3d
00000230: 176c 033d 9e2a 10bd 402b 6d3d f788 86bd
00000240: 8caa b53d 9a79 473d 165f 3c3d 07d8 db3d
00000250: be87 803d 96f5 f93b a050 4a3d db93 91bd
00000260: bc1a 7f3d e239 8b3c a3de 60bd 7847 063d
00000270: a8d1 1dbd 3c29 963b 98cd 74bd 579e 7e3d
00000280: 73d4 043c 8b9f fabc 0a84 d93d c83d db3c
00000290: 4fe1 ec3c c458 8d3d 04e5 b33d dbec 9bbb
000002a0: b498 cc3d e760 61bd eb05 c03b cc40 9fbc
000002b0: 348b 953d 6545 6fbd 2822 cebc 640a a5bc
000002c0: e137 7d3d bef1 bd3d ca27 433d 6d46 9dbc
000002d0: ff1a 10bd 10a9 58bd fa02 f83b 55ac 433d
000002e0: d86b 14bd 6826 ad3d 449a 2c3d 9c7c 2a3c
000002f0: 6482 d73d 29f3 253d 8698 ad3d 10fa 13bd
00000300: 4530 c03c 315d 853b c656 e73d ea35 bd3d
00000310: 8bd3 8abd b67c 9b3c 133e ce3d 74e1 fcbc
00000320: 60ae 033e b993 5b3d 57e9 42bd 15e2 5abd
00000330: 1bb7 7fbc 92b3 7a3d 7211 b43d b222 843d
00000340: a88a a33c 90ba e1bc 39eb 41bd 271a 4fbd
00000350: 5a41 3dbc 29fd 723d ccef 9e3d 2ba3 493a
00000360: 868a 43bd 4a29 613d d367 fa3d 3b87 4c3a
00000370: af11 4bbb 2306 033e e024 bfbd 4935 b93d
00000380: a44a 2ebd a494 cdbc 4926 ac3d e0ac 763d
00000390: 019a 64bd a1f7 343c d9ae 0b3e 2767 ed3b
000003a0: 95e3 fd3d ec13 183d 1a62 853d 35f7 5bbd
000003b0: ffb6 85bd 14bc 73bc e508 54bd f1ca bcbc
000003c0: 1d16 2c3c 0dc3 4d3d 6f6a 29bd 79e6 623d
000003d0: 07a5 5e3d a5d9 b33c 66d3 773b 25b1 b33c
000003e0: e1d7 3e3d a67a e3bc 8854 54bd cca4 37bd
000003f0: b057 713d 4c81 e9bc 40ec d0bd 6515 8bbd
0.034381256 0.009207219 0.05280983 -0.033400252 0.037001766 -0.03353908 0.07419154 -0.006349971
0.06788712 0.10044025 -0.08070128 -0.022848248 0.035707433 0.041686743 -0.01346772 -0.10321773
0.041852865 0.08332829 -0.07855347 -0.027187224 -0.025453938 0.080465615 0.07413658 -0.041930575
0.086871505 -0.05808009 0.04678534 0.025187757 0.0100167915 -0.038481593 0.02895234 0.0014827487
-0.035697307 -0.063534595 0.04745692 -0.039487004 -0.10085351 0.038278516 0.0458716 -0.0584893
0.0028413963 0.07724404 0.042522047 -0.09694611 0.02508622 -0.06536137 0.0166152 -0.026891742
-0.039146405 -0.07493698 -0.05132086 -0.09276099 -0.0037801387 -0.006158617 -0.05426809 -0.055584997
0.032475274 0.0068989396 0.07728681 -0.07464307 0.08326506 -0.0843577 0.087728195 -0.020772284
0.071241476 0.06438746 -0.06271595 -0.051645167 0.009307815 0.07875836 -0.000684103 -0.019402869
0.038174197 -0.071067736 0.017788224 0.023765462 -0.096958935 0.032675087 0.020042038 -0.041690093
-0.08958011 0.015412687 -0.10249835 0.009534047 -0.01671931 -0.005966632 0.08581063 -0.02510722
-0.025140796 0.047907043 -0.076853946 -0.06129264 -0.08030763 -0.037437923 0.009787067 0.023682456
-0.021196133 0.00019081486 -0.04421294 -0.03326184 0.030472709 -0.018260513 -0.0074837683 -0.065637685
-0.020727705 0.052699827 0.07778681 0.093731605 -0.08188273 0.042166106 0.05378474 -0.006878886
0.037457913 0.0032344365 -0.05049127 0.053328887 0.07836149 -0.08883088 0.020209357 0.005788016
0.104209594 0.026743194 0.0560838 0.11657945 -0.014725145 -0.052341618 0.127798 0.06597367
0.0468725 0.058094148 -0.0061569083 -0.00236019 0.004681562 -0.087915346 -0.0037349863 0.0639781
0.0670445 -0.08390519 -0.020856356 0.09949595 0.032085504 -0.035196893 0.057902575 -0.06569093
0.0887042 0.048699953 0.04598912 0.10734563 0.06275891 0.007628153 0.049393296 -0.07108279
0.062281355 0.016995374 -0.054899823 0.032783 -0.038530022 0.0045825522 -0.059766382 0.062162723
0.0081072925 -0.030593654 0.106208876 0.026762858 0.02891603 0.06901696 0.08783916 -0.00475846
0.09990063 -0.055024054 0.0058600805 -0.019440077 0.073019415 -0.05841579 -0.025162771 -0.020146556
0.06182087 0.09274624 0.047645368 -0.01919862 -0.035181995 -0.052895606 0.007568714 0.04777177
-0.03623566 0.08454591 0.042139307 0.010405686 0.10522917 0.0405151 0.08476357 -0.03612715
0.023460517 0.004069947 0.112958476 0.09238799 -0.0677863 0.018980365 0.100704335 -0.030869223
0.12859488 0.053607676 -0.04758581 -0.053438265 -0.015607621 0.061206408 0.0879239 0.0645193
0.019963577 -0.02755478 -0.047343466 -0.05056205 -0.011551226 0.059323464 0.077605814 0.00076918554
-0.047739528 0.054971017 0.12226834 0.00078021333 -0.0030985882 0.1279531 -0.09333205 0.090433665
-0.04255165 -0.025095291 0.0840574 0.06022346 -0.055810932 0.011045367 0.13640918 0.0072449627
0.123969235 0.037128374 0.06512852 -0.053702552 -0.06529044 -0.014876384 -0.051766295 -0.023045989
0.010503319 0.050234843 -0.04136127 0.055395577 0.0543566 0.021954367 0.0037815212 0.021935055
0.046592597 -0.027768444 -0.051838428 -0.044834897 0.058921516 -0.028504036 -0.10201311 -0.0679119

fc2.bias f4 [84]
00000000: 0840 5b3d c75e 8a3d 6f74 9a3d 1363 1f3d
00000010: b40b 1a3d a336 14bc a6f0 6e3d 37f6 b93d
00000020: 0c1d aabd 43b9 0cbd e3d5 433d efbf a4bc
00000030: 0bac 643d 5800 3a3c b38f 9dbd 6cc4 a33d
00000040: a78d 693d 7081 cd3d f464 7cbd 656b c93d
00000050: 4b7a d03d b560 863d a26c ed3c e47b b7bd
00000060: f115 163d f6ed fc3d 3c0f 13bd 7fe8 8c3d
00000070: 8b91 673d 709a 78bd a98a 15bd 4edb 90bd
00000080: 8393 af3d cd27 433d ec67 67bd b233 3bbd
00000090: 8051 56bd 3117 cb3d 5be5 7e3d fe7e 9bbc
000000a0: f3a1 a4bd 1c03 b7bb e951 773d 3699 d63d
000000b0: 54df 01bd e1ab a5bd b0a7 82bd 47f7 2e3d
000000c0: 698a e33c 4c43 4fbd 4698 be3d 6a1e c9bd
000000d0: f7bc 843d 2654 15bc 7a9a acbd 8d57 03bd
000000e0: 37b1 b33d 18e0 32bb 976d a23d 97ee 853d
000000f0: bf36 02bd df66 653d f961 5abd 8de2 20bd
00000100: 00d6 8b3d c27d 10bc 3c2f 573c 3ce7 a53d
00000110: 2e6d 32bc efbf 603d 3f3b 36bd ce9e 403d
00000120: 82ef 97bd fa24 cdbd 4c5e 1fbd 34f4 8abd
00000130: 99e1 9e3d a511 7bbd ec3b bbbd 8f2a 8bbd
00000140: b09d b1bd b2bf 7bbc 38bb 57bc f8e8 81bd
0.05352786 0.067563586 0.07541739 0.038912844 0.037608817 -0.0090462295 0.05833497 0.09080165
-0.083063215 -0.034356367 0.0478114 -0.020111052 0.055828135 0.011352621 -0.07693424 0.07996449
0.057019856 0.10034454 -0.061619714 0.09834937 0.101795755 0.06561414 0.028982464 -0.08959177
0.03664202 0.12350075 -0.0359032 0.068802826 0.056535285 -0.060694158 -0.03650919 -0.07073079
0.085730575 0.04764538 -0.056495592 -0.045703597 -0.05232382 0.09916533 0.06223045 -0.018981453
-0.08038702 -0.0055850875 0.06038085 0.104784414 -0.031707123 -0.08089424 -0.0637964 0.04271629
0.02777596 -0.05060129 0.093063876 -0.09820254 0.06481355 -0.009114301 -0.084279016 -0.032065917
0.087740354 -0.0027294215 0.07931059 0.06539648 -0.03179049 0.05600631 -0.05331609 -0.039278556
0.06827927 -0.0088190455 0.01313382 0.08100745 -0.010890288 0.054870542 -0.044490095 0.047026448
-0.07418729 -0.10016818 -0.038908288 -0.06784859 0.07757873 -0.061296124 -0.091422886 -0.06795227
-0.08672655 -0.015365528 -0.013167195 -0.063432634

fc3.weight f4 [3, 84]
00000000: 5495 153c e8e2 f4bd a1ec 48be 6363 0cbe
00000010: e640 04be 5e8f b2bd 14a3 b5bd 0841 13be
00000020: a31d 023e b789 13bd 935b 243d 28dc c7bd
00000030: d265 1bbe 8557 603d 8089 843d 72bc cabd
00000040: 8c4d b9bd a841 d73d e71a b03d 002f 9f3c
00000050: 1e17 593c a757 8a3d 3870 f2bd 548a 703d
00000060: 80cd 903c a938 16be 4914 b63c e6b8 cc3d
00000070: a1e7 933d 21f0 c1bd 6ad4 73bc daa8 b1bd
00000080: 03eb e23b 2159 b4bc e5f6 e93d cb65 ae3d
00000090: 5a4f a33d ec41 1fbe 9468 c2bd 4e25 b23d
000000a0: b632 8b3c 0e7b 723d 6d05 813d 96a7 f9bd
000000b0: ee23 f23d 1f4e 28bd efb1 da3c ff71 c7bc
000000c0: 82dd be3d 09d3 633d 2eb0 40be 6643 c9bd
000000d0: b2bd 02bd 6c2d 92bd 815a 7abd 904f bc3d
000000e0: 28f5 33be 214e f2bc a16f f5bd 7b84 013e
000000f0: 6eeb 7c3c cdbd a8bd c918 5f3c 1fb7 7f3d
00000100: 2c0b 09bd 9d86 51bb 5ff9 41be 83d8 b03c
00000110: ea2e dd3c 46b3 13bd de0f 90bd d28d 873d
00000120: 95bb a53c 3f3d 17bd 053b fe3b 7476 bebd
00000130: 9c92 b4bd 3ffc 273c dab2 5b3c 449b 853d
00000140: 58f9 fc3c 2daa cebd c8c1 e8bd c6cb 673d
00000150: 7d89 ae3d b2ba b93d ac41 ee3d 01f4 ed3d
00000160: 6c65 bebd ed84 003c a6bd 14bd 79b5 ee3d
00000170: 7e7b 403c a5c4 303c 3336 34bd 353e 243b
00000180: 9fac c6bb a5ed 7c3d a36a 413d 4be6 31bd
00000190: aac3 29bd 7178 5fbd adae 9a3d 60a1 fcbd
000001a0: 30df babd 7bac dfbc f3e9 183e 23f0 93bd
000001b0: f694 7c3d 5f4c e13d c3d6 323d e41b d93d
000001c0: 7612 2f3d 3517 aabd fdd4 e83b d722 303c
000001d0: 1d59 963d 3d80 30bd 058a a33c 8cb9 babc
000001e0: 4094 0d3d 1a3c e23d 58bf ed3d d7a1 ddbd
000001f0: 1c64 08bd c0b9 673d d3e3 a1bd 81a6 f13d
00000200: b250 6ebc 169c a8bc 3f3b 9f3d a0be 37bd
00000210: aa84 c5bd 5022 1a3c 94db 34bd b322 38bd
00000220: d0ce 853d a651 5fbb bd54 8d3c 74e1 71bd
00000230: 2f36 a73d 40b2 9c3d f4fc d03d 1859 0fbe
00000240: 1819 8e3d cbac 86bd d2ab 173d 2384 8b3d
00000250: c437 013e 2615 f1bc 948f 8fbd ee27 93bd
00000260: 161e b5bd e025 86bd 9085 443d 3c64 ce3d
00000270: ccfa cdbd 4bc4 a8bd 725c de3c 5013 843d
00000280: 93da ec3d 9e19 d0bd 0a6f 8a3d 6fb6 ae3b
00000290: 157b 8d3d e128 65bc 26f1 973d 6dae a93d
000002a0: b6df 84bd 8af3 c23d d9e2 d7bc f24e 9bbc
000002b0: 3012 a73d 218b fe3c d78a ea3d 9a47 a73d
000002c0: 7a29 65bd 8596 903d d0c1 b63d 3cb5 b53d
000002d0: 41b2 bb3c c6d2 b3bd 1681 a93d 8bdf 9d3d
000002e0: ee02 fd3c 141c 4c3d 0adf 9e3d 94d3 723d
000002f0: 9780 ff3c 4aea eabd 23ca bbbd dab2 703c
00000300: f4c4 6c3d 4b4e 4e3d 2c52 caba 2ef4 a03b
00000310: 1f85 b7bc 1841 bfbd aec3 a3bd f9d7 aa3d
00000320: 5fc5 b13d dc9a 473d ff99 ad3d 271d 7fbd
00000330: 253a ccbc 05a6 c13d ae69 983d fa1e 97bd
00000340: c6e7 68bd 2a31 aa3c 3361 7fbd 027e 763d
00000350: 56ba 08be 5775 5a3d 671b 5d3d b471 283c
00000360: 82ed b93d d563 20bd bd40 88bd dd65 9ebd
00000370: b454 eebd ad77 d1bd 6374 463d 2dd7 8b3c
00000380: 8c93 93bc eab1 7abd 414d 173c 7cb4 e0bd
00000390: 7916 b6bd 3c71 b73d ddc1 bf3c cfe3 49bd
000003a0: 07c5 febc bfef aabd 563d b7bd 3b24 8b3d
000003b0: 1a7d 6fbd 638b 6cbc 3c79 a3bc ebd1 b3bd
000003c0: 4846 f13c 613f 863d 998f b63d b794 0bbe
000003d0: 7d4d 9cbd 76f2 fdbc 4ec7 25bd 059a f73c
000003e0: 06fc f1bb 499f 343d e547 b93c 5325 b53d
0.009129841 -0.119573414 -0.19621517 -0.13709788 -0.12915382 -0.08718751 -0.08868995 -0.14380276
0.12706618 -0.036020007 0.040126394 -0.09758788 -0.1517556 0.054770965 0.064715385 -0.09899224
-0.09047994 0.1051057 0.08598881 0.019431591 0.0132501405 0.067549996 -0.1183781 0.05872567
0.017676115 -0.14670052 0.02222647 0.09996204 0.07221914 -0.09469629 -0.014882186 -0.08674784
0.0069249882 -0.022015156 0.114240445 0.08515509 0.079741195 -0.15552491 -0.09492603 0.086985216
0.016991954 0.059199385 0.06299863 -0.121901676 0.11823259 -0.041090127 0.026696173 -0.02434635
0.09319593 0.05562118 -0.18817207 -0.09827308 -0.03191919 -0.0713757 -0.061121468 0.09194863
-0.17573988 -0.02957827 -0.11984182 0.12648194 0.01543699 -0.082393266 0.013616749 0.062430497
-0.03345792 -0.0031971105 -0.18942784 0.021587616 0.02699991 -0.03605964 -0.070342764 0.06618847
0.020231048 -0.036923643 0.0077585005 -0.09299937 -0.08817026 0.010253011 0.013409341 0.06523755
0.030880615 -0.10091052 -0.11365086 0.056590818 0.085223176 0.090688124 0.1163362 0.11618806
-0.092966884 0.007844192 -0.036313675 0.11655707 0.011748193 0.010789071 -0.043997 0.0025061492
-0.0060630585 0.061750073 0.047220837 -0.043432515 -0.041446365 -0.05455822 0.07552848 -0.12335467
-0.09124601 -0.027303925 0.14932995 -0.07223537 0.061665498 0.11000895 0.043661844 0.10601023
0.042742215 -0.08305208 0.0071054683 0.010750494 0.07341216 -0.043091048 0.019963274 -0.022793554
0.03456521 0.1104662 0.116087615 -0.10821884 -0.033298597 0.05657363 -0.07904782 0.11799336
-0.014545606 -0.02058224 0.07774972 -0.04485953 -0.09644444 0.009407595 -0.04415472 -0.044954967
0.06533587 -0.0034075766 0.01725232 -0.0590529 0.081646316 0.07651186 0.10204497 -0.1399883
0.0693838 -0.065759264 0.037029095 0.068123125 0.12618929 -0.02942903 -0.07009807 -0.0718535
-0.08843629 -0.06550193 0.047978938 0.10077712 -0.10057601 -0.08240565 0.02714369 0.06448996
0.11565127 -0.10161136 0.0675946 0.0053318064 0.06908242 -0.013986797 0.07419042 0.08285222
-0.06487982 0.09519108 -0.026353287 -0.018958542 0.08157766 0.031072201 0.11452263 0.08167954
-0.05594776 0.07059959 0.089236856 0.08872458 0.022912147 -0.08780436 0.08276574 0.07708653
0.030885186 0.049831465 0.07757385 0.059283808 0.031189246 -0.11470468 -0.09169414 0.014691079
0.057805017 0.050367635 -0.0015435866 0.004911921 -0.022402344 -0.093385875 -0.07996307 0.08341975
0.08680224 0.04873167 0.08476638 -0.06228366 -0.02493007 0.09455494 0.07442032 -0.07378955
-0.05686166 0.020775396 -0.062348556 0.060178764 -0.13352332 0.05333456 0.05398121 0.010281015
0.09078504 -0.039157707 -0.06652973 -0.07734273 -0.116372496 -0.102279045 0.04845084 0.017070377
-0.018014692 -0.06120483 0.009234727 -0.10971925 -0.08891005 0.089571446 0.02340787 -0.04928952
-0.03109981 -0.08346509 -0.08947246 0.0679402 -0.058468916 -0.014437529 -0.01995527 -0.08780273
0.029452458 0.06555057 0.08914108 -0.13630949 -0.07631967 -0.030999403 -0.040473275 0.03022481
-0.00738478 0.04409722 0.02261729 0.0884501

fc3.bias f4 [3]
00000000: 154d 6d3d 34df 83bd 3214 f1bc
0.05793484 -0.06439057 -0.029428575
