neuralnetwork/soilclassifier/soil_net.pth (torch, 252146 bytes, 18 tensors)

conv1.weight f4 [6, 3, 5, 5]
000000 fa da e7 3c 8c 97 1b bc b2 c7 b9 3c 57 28 45 bb
       0.028302658 -0.009496581 0.02267823 -0.003008386
000010 4c 9a 9e 3d 5b bd 82 bd 1b 06 a9 bd f2 bf a3 bd
       0.077442735 -0.06383773 -0.08253118 -0.07995595
000020 7d 9b 8c 3c 7b 64 d4 bd 7f c0 b5 3d ce 63 3f bd
       0.017163986 -0.10370728 0.08874606 -0.04672604
000030 cb 4b 83 bd a3 cc 99 bd 7c e9 e3 3d 5b a5 59 bd
       -0.06410941 -0.075097345 0.11128518 -0.05313621
000040 fe 34 d3 3d e7 3d b1 bd eb 3b 76 bd cb 40 87 3d
       0.10312842 -0.08654385 -0.060115736 0.06604155
000050 e5 a6 79 bd ab a9 c8 3d 4e 34 ba 3d cc 7f 76 bd
       -0.06095018 0.097979866 0.090920076 -0.06018047
000060 57 c7 28 bd 88 7c 67 bc ab 5f c5 bd a7 a4 1c bc
       -0.04120573 -0.014128812 -0.09637388 -0.009560741
000070 90 7e 37 3c 3e 33 e6 bc 96 32 69 3d 50 89 c0 3d
       0.011199608 -0.028100606 0.056933008 0.0940119
000080 68 ec 0d 3d 16 e7 98 3d 21 4c 8c bd 76 96 52 bd
       0.034649283 0.07465951 -0.06850458 -0.051413022
000090 c3 42 57 bb de 3d b1 bc 41 6c c2 bd f8 0c ca 3c
       -0.003284619 -0.021635946 -0.09493304 0.024664387
0000a0 1c 38 c5 bd 84 ce eb 3d a1 48 ba 3d 0e a1 d8 3d
       -0.09629843 0.11513999 0.09095884 0.10577594
0000b0 72 26 ee 39 3b 6e f3 bc a0 b3 4c bc ad 22 8b bd
       0.0004542354 -0.029715648 -0.012493998 -0.06793723
0000c0 66 9a 1e 3c 6b 5a 85 bd fd 59 af 3d ad 3f eb 3d
       0.009680366 -0.065113865 0.08562086 0.114867546
0000d0 22 cf a0 bd 18 83 b0 bd bd 97 d3 3c ea 3b 93 3c
       -0.078520074 -0.08618754 0.02582919 0.017972905
0000e0 93 25 60 bd 43 a6 d0 bd b3 e3 1a bc 20 9e 9c 3d
       -0.054723334 -0.10187962 -0.009453702 0.076473475
0000f0 56 53 68 bd 40 10 9f 3d 42 87 a3 bd 30 b2 1e bc
       -0.0567201 0.07766771 -0.07984783 -0.009686038
000100 94 2f 94 3d 82 2a 29 3d 3c 38 45 3c 32 90 b6 3d
       0.07235637 0.041300304 0.012037333 0.08914222
000110 5f 68 c1 3d a2 9c 72 bd b4 a3 47 bc 5d 6e c0 3a
       0.09443735 -0.059231408 -0.012185026 0.0014681328
000120 89 9b 82 ba 16 3f b4 3d 45 bc 71 3d d1 f2 d0 3d
       -0.0009964566 0.08801095 0.05901744 0.102025636
000130 c5 e7 a5 3d ee 97 cf 3c a1 5d ae bc ca 09 7f 3d
       0.08100847 0.025341 -0.02128488 0.062265195
000140 41 55 0e 3d c5 1d e4 bd a8 ad 0f bd f0 6b e2 3d
       0.034749273 -0.111384906 -0.03507772 0.11055744
000150 83 8b 81 3d 6c b3 c9 bd 8c 19 58 bd 20 17 cb 3d
       0.06325438 -0.09848675 -0.05275874 0.0991652
000160 7b e4 4b bd b9 1a da 3d 85 31 e1 3d e1 94 61 3c
       -0.049778443 0.10649628 0.10995773 0.013768406
000170 fb 0d 8b bd d1 48 92 bd 0a 2a 94 bd ea aa 08 3d
       -0.06789776 -0.07142795 -0.07234581 0.03336612
000180 e9 69 89 3d 93 e4 87 bd 75 52 44 3d 7f e9 8a bd
       0.06709654 -0.06635394 0.0479302 -0.06782817
000190 fe 44 68 3d cf 98 83 bd 6e b2 57 bd f3 9b dc bd
       0.05670642 -0.0642563 -0.0526604 -0.107719325
0001a0 93 c8 a0 3d 9a 2f 47 3c 93 52 7f bd 3f 0b a4 bd
       0.078507565 0.012157345 -0.06233461 -0.080099575
0001b0 c5 ac 50 3d 67 49 46 3d 90 48 80 bd 68 d0 36 3b
       0.050946016 0.048409846 -0.0626384 0.0027895216
0001c0 6c b8 f9 3c b3 2a 8d 3d 7d 34 31 3d 88 fe 1c 3d
       0.030483447 0.0689291 0.043262947 0.038328677
0001d0 a1 62 5f bb 6b 3d 9d bd 3f 78 bf 3d 5e 73 8d bd
       -0.0034085887 -0.0767773 0.09349107 -0.0690677
0001e0 5a 41 bf 3d 46 12 a7 bc 68 c2 c7 bd b6 c1 de bc
       0.09338637 -0.020394456 -0.09753877 -0.027191978
0001f0 54 90 42 3d 0c 2f e5 3d 1e 26 42 3d 7e a0 cb ba
       0.047500923 0.11190614 0.047399633 -0.0015535501
000200 b5 ce e5 bd 2b 9c ba bd ea 8f d4 3c fa 6f 5a 3b
       -0.11221067 -0.09111818 0.02594753 0.0033330903
000210 e0 76 33 3d fb 5e 6e 3d e7 54 aa 3d 10 ec db 3d
       0.04381454 0.05819605 0.08316975 0.10738385
000220 dd 79 c5 bd 5c c4 46 3d 31 b1 81 3d 3a 90 9f bd
       -0.09642384 0.048527107 0.06332625 -0.07791181
000230 2f 3a 4a 3d d2 61 c3 3c 8c 46 85 3d 21 20 aa 3d
       0.049371894 0.023850355 0.065075964 0.08306909
000240 0d d2 95 3d 1a 86 ed 3b 41 14 82 3d 98 c1 be 3c
       0.07315455 0.007248652 0.063515194 0.023285672
000250 7f 70 5c 3d 75 22 8b 3d cf 9f 5c bd 38 dd c3 3d
       0.053818222 0.067936815 -0.053863343 0.095636785
000260 ee 3e 94 bc 0e 10 84 bd bb bc 27 bd c5 a5 12 bd
       -0.018096413 -0.06448375 -0.04095147 -0.03580262
000270 46 95 ba 3d c7 eb 15 bd 35 bc 15 3d 92 3e 4d 3d
       0.09110503 -0.036601808 0.03655644 0.0501085
000280 a9 f2 ae 3d 16 8b b1 bc 55 ea ac 3d 42 5c 76 3d
       0.085423775 -0.021672767 0.08443133 0.060146578
000290 c9 64 a6 3d 76 b2 0c 3c 1c c6 fd 3c 3c ee d3 3d
       0.08124692 0.00858747 0.030978255 0.10348174
0002a0 34 10 ac 3d 28 ca bc 3d 7c 43 aa bd 13 e0 bd bb
       0.08401528 0.09218246 -0.08313653 -0.005794534
0002b0 96 7c a2 bb fe 59 b3 3d 54 27 b2 3c 89 bf 91 3b
       -0.0049586995 0.08757399 0.021747269 0.0044478816
0002c0 4d eb 51 3a f9 3e 7e 3d 70 43 23 3d 50 cb de 3d
       0.000800778 0.062071774 0.039859235 0.108786225
0002d0 18 a4 46 bd 47 c2 d0 bd f4 81 95 bc 7c ce 39 bc
       -0.048496336 -0.101933055 -0.018250443 -0.011340734
0002e0 e1 75 52 3c 8f 28 7e bd 8e 96 aa 3c 49 8c f3 bc
       0.012845487 -0.0620504 0.020823743 -0.02972998
0002f0 af 3f cc bd f1 da 73 bd 02 7e 5d 3d 27 a2 d6 bd
       -0.09973084 -0.05953497 0.05407525 -0.10480147
000300 1a 98 bc bc ed 00 72 3d 04 5d b3 3d 9a 0f ab bd
       -0.023021746 0.059082914 0.08757976 -0.08352585
000310 67 05 f6 bc 5f 38 d9 bd f8 e6 06 3d 0a b5 3e bd
       -0.030031873 -0.10606455 0.032935113 -0.04655937
000320 3e 9b 0e 3a 72 e2 a5 bc 6a df ae bd 0d 20 aa 3d
       0.0005440003 -0.02024958 -0.085387066 0.083068945
000330 da 4b 1c bd 11 03 cd 3c 4a c9 cc 3d 03 1c 70 ba
       -0.038158275 0.025025876 0.0999933 -0.00091594475
000340 9a a1 dd 3c 05 c9 ac 3b ee 6d 49 3d f1 61 b2 bd
       0.027054597 0.005272987 0.049177103 -0.08710087
000350 26 45 8a 3d ae 83 07 bc 12 b8 84 3b 18 92 b7 3d
       0.0675147 -0.008271141 0.004050263 0.08963412
000360 5c 44 60 3d 69 7e 9a 3c 4c 9c 31 bd a6 0d c1 bd
       0.054752693 0.018859105 -0.043361947 -0.09426431
000370 e8 78 d1 bd 60 61 ca bd a8 40 ca bd fb 9b 7e 3c
       -0.10228139 -0.09881854 -0.098756135 0.015540118
000380 c9 80 cd 3d c3 6e 3f 3d 61 37 7a 3d a2 72 2a bd
       0.100343294 0.04673649 0.06108797 -0.04161323
000390 a7 1a ac 3c 1e 81 27 3d b7 79 da 3d 90 63 a7 3d
       0.021008803 0.04089462 0.106677465 0.08173287
0003a0 93 21 19 3d c2 40 e7 bc 05 c8 81 bd 8e 39 8e bd
       0.037385534 -0.028229121 -0.06336979 -0.069445714
0003b0 fd 37 bf bd 87 93 ef bd 90 74 bd bd 42 bc 95 bd
       -0.09336851 -0.116980605 -0.09250748 -0.07311298
0003c0 11 70 97 3d cc fb 87 bc 6f 9e 83 3b 84 db e6 bd
       0.07394422 -0.016599558 0.0040166895 -0.11272338
0003d0 e5 e9 87 bd 89 a9 de bd 30 a6 e5 3c 7a 67 a6 3d
       -0.06636409 -0.1087218 0.028033346 0.08125205
0003e0 47 24 93 3c 82 36 3d bc 6b 28 c4 bd d1 bd ba bd
       0.017961634 -0.01154864 -0.095780216 -0.09118236
0003f0 6e c4 d4 bd c3 85 c0 3c 63 81 d5 3d 0e 02 43 3d
       -0.103890285 0.023501283 0.10425069 0.04760938

conv1.bias f4 [6]
000000 b0 be b4 bb 80 d1 bd bd 05 42 c5 bc 8d 67 d8 3d
       -0.005515896 -0.092684746 -0.024079332 0.10566626
000010 63 5d ec 3c 3f 9a db bd
       0.028853124 -0.107227795

conv2.weight f4 [16, 6, 5, 5]
000000 a3 63 33 3d 7d 58 03 3d fa d4 4b 3c d5 de c1 bc
       0.043796193 0.03206681 0.012440914 -0.023665825
000010 2a b3 4d 3b b6 07 ca bb 77 d7 89 3d 76 33 16 bd
       0.0031387308 -0.00616547 0.0673055 -0.03667017
000020 9d 12 f3 bb 73 41 1e bd b3 53 9e bc 94 a3 67 3d
       -0.0074179904 -0.038636636 -0.01932702 0.056552485
000030 4e 78 a6 3d 8b 20 8a 3c cd d5 b6 3d 2c 21 94 3d
       0.08128415 0.01686122 0.08927498 0.072328895
000040 d5 b4 a3 3d 75 55 0b 3d 1b cd 9b 3d b9 47 aa 3d
       0.07993475 0.034017045 0.0760748 0.08314461
000050 be 3d 5d 3d b6 b1 22 bd eb 1c 4a 3d 5f 38 c1 3c
       0.05401396 -0.03972026 0.049343985 0.02358645
000060 18 a8 89 bd 7b 29 75 3d 0e d8 b2 3d cb 0e 5b bd
       -0.067215145 0.059854012 0.087326154 -0.053480905
000070 9e 76 b5 b9 80 08 bc bc f7 d8 5f 3d d9 c2 04 bd
       -0.00034611387 -0.022953272 0.054650273 -0.032412384
000080 7b aa 10 3c fd bd 65 bd 8e 6e 8f 3c bd 07 94 bc
       0.008829708 -0.05608939 0.017508771 -0.018070096
000090 d1 fc a4 3d 66 8e 51 3d 3f 3c 91 bc 58 3f 72 bd
       0.080560334 0.051161192 -0.017728923 -0.05914244
0000a0 ea db 01 bb 8e 6b 7d bd 25 e5 5e 3c 77 c5 6b bd
       -0.0019814917 -0.06187015 0.013604437 -0.057561364
0000b0 1d f9 46 3d fe 60 5d bd 33 f1 62 bc 25 de 82 bb
       0.048577417 -0.054047577 -0.013851452 -0.003993767
0000c0 4f 29 6a bd 86 4c 86 bc bb f1 a3 bc 9d ef 2e bd
       -0.0571683 -0.016393911 -0.020012727 -0.04270898
0000d0 04 08 0f 3d 25 9f d4 3c 41 2e 73 bd 43 34 82 bc
       0.034919754 0.025954792 -0.059370283 -0.015894061
0000e0 28 be 4d 3d 4a 6b a0 3c fb 55 b8 bc bd 65 9d 3d
       0.050230175 0.01958241 -0.022501936 0.07685421
0000f0 94 27 40 bc 1c 87 98 3d 1b d1 03 bd 95 88 73 bd
       -0.011728186 0.07447645 -0.03218184 -0.059456427
000100 71 bc b9 3a 7e 54 b7 3c 4d 8a d0 3c 8d f6 1a 3d
       0.001417054 0.022379156 0.025456572 0.037832785
000110 9e 0e 57 3d a8 a7 72 bd 65 b4 2e bd 27 ce a5 3d
       0.052504174 -0.05924192 -0.042652506 0.08095961
000120 10 98 df 3b 8e 32 4d 3d 51 09 fe 3c bf 95 38 3d
       0.006823547 0.05009704 0.031010302 0.045064684
000130 4c 84 28 bc 2a d6 a2 bc 82 fa 09 bc c7 f2 77 bc
       -0.010285448 -0.019877512 -0.008421542 -0.015133566
000140 59 9b 94 bd 57 63 ac 3d 89 64 50 3d 76 a9 6d bc
       -0.07256193 0.08417385 0.050877128 -0.014505735
000150 f4 c1 88 3d 13 d3 d9 bc 1c 49 7e bd 80 f1 87 bd
       0.066776186 -0.026589906 -0.06208144 -0.06637859
000160 4c b6 67 bd cc 6b 8c 3d 43 ad 6c 3c 7a ec 5f bd
       -0.056570336 0.06856498 0.014445606 -0.05466888
000170 f6 93 23 bd 02 84 85 bd 4a 79 a3 3d 93 44 9f 3d
       -0.03993603 -0.06519319 0.079821184 0.07776751
000180 da 13 e3 3c 96 df 48 3c ec a7 96 3d c8 39 2b ba
       0.027719427 0.012260338 0.07356247 -0.00065317424
000190 a0 d4 23 bd a5 2f 9c 3d dd d6 85 3c d5 12 d1 bc
       -0.039997697 0.07626275 0.016337806 -0.025521675
0001a0 05 52 7f bd 94 01 1b bd 3e fe 60 bd 8b d8 a8 3c
       -0.06233408 -0.037843302 -0.054929964 0.020611068
0001b0 da 64 a8 3c 6f b3 1c bd a9 03 90 3d a7 9c 51 bd
       0.020555902 -0.03825706 0.07031948 -0.051174786
0001c0 2a da 74 bd 74 64 a1 bd a9 e4 a7 bd 6b 3a 8e 3d
       -0.05977837 -0.07880488 -0.0819791 0.06944736
0001d0 17 3d 8a bc 94 5e 96 3d f2 f0 f7 bc 64 87 bb 3c
       -0.016874833 0.07342258 -0.030266259 0.022891708
0001e0 ef 33 8e bc 6f 52 a4 3c d4 d1 9c 3d b1 5d c8 bc
       -0.017358748 0.020058839 0.07657209 -0.024458738
0001f0 c5 99 a5 bd 04 9b 95 3d 6a aa 88 bc 14 7c 08 bd
       -0.0808597 0.073049575 -0.016682822 -0.033321455
000200 c8 7a ea bb 11 33 1c 3c 93 51 23 bd 98 9e a8 3d
       -0.00715575 0.00953366 -0.039872717 0.08233374
000210 cc 32 30 bd 22 0f 63 bb 98 00 08 3d f0 31 25 3d
       -0.043017194 -0.003464647 0.03320369 0.040330827
000220 45 53 3e 3d 5d 01 89 3d d4 a7 60 bd 27 e1 7d bd
       0.04646613 0.06689713 -0.054847553 -0.0619823
000230 7b e0 5c bd 1e 9b 87 bd 78 40 92 3d 41 da 95 3d
       -0.05392502 -0.06621383 0.07141203 0.07317019
000240 5f 9b 8b bc 04 06 84 bc 2c 52 34 3d ee 25 f6 3b
       -0.01704186 -0.01611615 0.044023678 0.007511846
000250 dc 86 57 bd eb 21 74 bd 45 f1 2c 3d 89 77 8f 3d
       -0.052618846 -0.05960266 0.04222228 0.070052214
000260 8e 37 63 bd ac 06 c4 bc 2a 67 b7 3b 54 6d 61 3d
       -0.055472903 -0.023928963 0.005597015 0.055035904
000270 d3 c8 9c 3d 21 35 21 3d 8e e7 5e 3d a2 43 95 3d
       0.07655492 0.03935731 0.054420047 0.072882906
000280 4d d8 82 bc 2c 76 8d bc 6a 64 a9 3c c4 bf 72 3c
       -0.01597228 -0.017268263 0.020677764 0.014816228
000290 84 3d fa 3c 61 5d 70 3d 28 34 5b bd e9 2c 4b bd
       0.030546911 0.058682803 -0.053516537 -0.049603377
0002a0 c2 97 b8 3d b7 74 43 bd e9 18 a8 bb 82 86 10 3d
       0.090133205 -0.04771873 -0.0051299226 0.035284527
0002b0 93 b5 3a 3d 46 ca 1a 3d 5b ed b8 3d af b9 9a bd
       0.04558332 0.03779056 0.09029647 -0.075549476
0002c0 10 26 88 3d a7 c2 5b 3d 3c a2 00 bd 6b 16 10 bd
       0.06647885 0.05365243 -0.03140472 -0.03517763
0002d0 ee c5 26 3c 64 b3 f0 3c a9 1f 5a 3d ca 9e dd 3c
       0.010179026 0.029382415 0.05325285 0.027053256
0002e0 6b 43 07 bc 1c 1b 91 bc 9d b3 98 bd bc 6c 32 bd
       -0.00825582 -0.017713122 -0.074561335 -0.04356073
0002f0 1e 38 db 3b 35 48 0e 3b 1f 32 2a 3d 28 49 97 bd
       0.0066900393 0.002171052 0.041551705 -0.07387
000300 7e 03 4c 3d d3 61 5b bd fe 3c 8e 3c f3 f6 0d bd
       0.049808018 -0.05356009 0.017363068 -0.034659337
000310 fe 12 81 bd 6d b4 d8 3c ef 64 27 3c 4e 80 c1 bc
       -0.063024506 0.026453221 0.010216936 -0.02362075
000320 41 67 98 bd a7 c9 f0 3b 32 ec 89 bd 13 68 5a 3d
       -0.07441569 0.0073482576 -0.06734504 0.05332191
000330 5a bc 52 3d 74 69 49 bd 4c af 87 bd e3 be 94 3c
       0.051449157 -0.049172834 -0.06625232 0.018157428
000340 73 40 84 bd fb 21 aa bc 2a 5f cd 3c cd 2f 1e bd
       -0.06457605 -0.020768156 0.025069792 -0.038619805
000350 54 4f 80 bd 6d ef 70 bd fa 51 f6 bc c4 5e 62 3d
       -0.06265131 -0.058822084 -0.030068386 0.055266157
000360 b7 4d 42 3d 3e 5b ad 3d 9a 86 50 bd c3 21 63 bd
       0.047437396 0.08464669 -0.050909616 -0.05545212
000370 30 1d 86 bd 55 f3 a0 3d 72 89 a5 3d 54 4a a7 3a
       -0.06548536 0.07858912 0.08082856 0.001276324
000380 92 00 80 bd 3b d4 55 3d 37 aa ae 3d c0 25 dc 3c
       -0.06250109 0.052204352 0.0852856 0.02687347
000390 7b 35 af bb 6f 91 79 3d 32 2e 8d bd 78 02 f8 ba
       -0.0053469515 0.060929712 -0.06893577 -0.0018921634
0003a0 70 7a e2 ba 20 22 0c bd aa 8d 6c bd 77 a7 a3 3d
       -0.0017278921 -0.03421223 -0.05775229 0.07990926
0003b0 90 50 50 bc f1 9a 42 bd d6 58 0a 3d db 3a 66 3d
       -0.01271452 -0.047511045 0.033776127 0.056208473
0003c0 89 e4 3b bd c2 2c 81 3d 24 8a 94 3d 5f ed e6 3c
       -0.045872245 0.06307365 0.07252911 0.02818936
0003d0 58 86 13 bd 92 44 5a 3d 83 1e 1f 3c 5a 6b 27 bc
       -0.036016792 0.05328805 0.009711864 -0.010218466
0003e0 79 18 77 3d 4d 93 65 3d 04 a9 28 bc 23 92 a7 bb
       0.060326073 0.05604868 -0.010294203 -0.0051138564
0003f0 56 96 8e bd c9 be 89 bd af e4 a1 3d 9c ab 80 bd
       -0.06962268 -0.067258425 0.07904946 -0.06282732

conv2.bias f4 [16]
000000 82 ec 11 3d 48 b7 bd bc ec 99 85 bd 48 dc 76 3d
       0.035625942 -0.023158684 -0.06523499 0.06026867
000010 8c f9 49 3d f1 86 6d bd 32 5f 9a 3d bb 12 05 bc
       0.049310252 -0.05799002 0.07537688 -0.0081221415
000020 23 79 4d 3c fb ab 52 3c b7 90 1b bd 65 08 91 3d
       0.012541088 0.012858386 -0.037979808 0.07081679
000030 60 f7 21 3c 5f 90 dc 3c 4b cc 3c bd e7 5a ee 3c
       0.009885639 0.02692431 -0.046093266 0.02909608

fc1.weight f4 [120, 400]
000000 99 19 a5 bb dd eb 17 bd 4b 1e 21 bc 11 0b 8b 3c
       -0.005038452 -0.03709017 -0.009833883 0.01697305
000010 f1 0d 05 3d a6 5c 64 3d 45 6b 70 bc d5 a0 c9 3c
       0.032484 0.05575242 -0.014674013 0.024612824
000020 56 0e bb 3c a8 54 06 bd 3c 55 20 bd 24 0a 62 3c
       0.022833984 -0.03279558 -0.039143786 0.013796363
000030 2d 11 aa 3c a2 40 1a bd b1 13 14 3d f9 5e 74 3c
       0.020760143 -0.037659295 0.03615159 0.014915221
000040 7a 2d ff 3c 02 39 08 3d 00 89 13 bd 1d a4 43 3c
       0.031149615 0.033257492 -0.036019325 0.011940983
000050 37 c4 51 ba 18 73 f6 bc da e5 fc 3c 8f f7 d0 3c
       -0.00080019556 -0.030084178 0.03087132 0.02550867
000060 b5 b3 5b 3d 35 b7 42 3d b6 a3 27 bd 6a f6 4d 3c
       0.05363818 0.047538 -0.04092761 0.012570957
000070 6f 35 7e bb 12 e2 15 bd 32 18 27 bd b4 27 98 3c
       -0.0038789173 -0.03659255 -0.04079456 0.01857362
000080 70 34 01 3c 7d 18 8b 3b dd 44 c8 bb 1e 5f e0 3c
       0.007886037 0.0042448626 -0.006111725 0.027389105
000090 97 6b 18 bd b4 ca 31 3d 7e 98 10 39 94 62 9b 3c
       -0.03721198 0.043406203 0.00013789718 0.018967904
0000a0 4d 66 2b 3d a8 4a bb bc f9 64 dd 3b cb 29 64 3d
       0.04184561 -0.022862747 0.0067564216 0.05570392
0000b0 01 a6 31 3d 2a 2b 17 bd 82 c1 01 3d d2 fd b5 bc
       0.043371204 -0.0369064 0.031678684 -0.022215758
0000c0 81 f8 02 3d 6b e8 61 3d 7d 65 21 3d 28 a1 e0 bc
       0.031975273 0.05515329 0.039403427 -0.027420595
0000d0 f1 ce bf bc c9 36 09 bd 6e aa 58 bc 25 0e 21 3d
       -0.023414107 -0.033499513 -0.013224227 0.03932013
0000e0 6f de 5e 3d 14 1b ca bb a3 d2 46 3d cf cf eb bc
       0.054411348 -0.0061677787 0.048540723 -0.028785614
0000f0 89 97 17 3c 51 75 e7 bc 64 c5 f3 3c ae f3 b1 bc
       0.009252437 -0.028254183 0.02975721 -0.02172264
000100 ca 37 4e 3c 32 ef 33 3c 79 ce ab bc 96 61 f0 bc
       0.012586543 0.010982322 -0.020972477 -0.029343408
000110 15 6e 1b bd 44 8f b5 bc 31 57 ff bc dd 20 31 bc
       -0.03794678 -0.022163041 -0.031169506 -0.010811058
000120 72 f8 11 3d 08 ac af bc 7c 6b 33 bd b9 cb 6a 3d
       0.035637327 -0.021444336 -0.043803677 0.05732319
000130 09 da d2 bb 96 51 2b bd da e1 05 3c 42 20 6a bc
       -0.006434683 -0.041825853 0.008171523 -0.014289917
000140 e8 60 34 bd e9 af f1 3c 3b 0a 07 3d 71 d2 20 bd
       -0.04403773 0.029502826 0.03296874 -0.039263193
000150 32 e9 3d bc 6f 5c f6 3b ca 77 15 3d e8 2a b2 bc
       -0.011591243 0.007518343 0.036491193 -0.021748975
000160 0f 22 4b 3d 06 d8 22 3d 06 96 a8 3c 0f 99 3b 3d
       0.049593028 0.039756797 0.02057935 0.045800265
000170 84 22 96 3c 5a 1b 82 bc e6 0f 6e 3c 57 1b a6 3c
       0.018327005 -0.015882183 0.014530158 0.020276709
000180 b3 fd 97 bc 58 51 85 bc 4f be 4c 3b bb 2e 0c b9
       -0.01855359 -0.01627414 0.0031241362 -0.00013368849
000190 ef ec 03 bc 51 56 6b 3c 3f 82 11 3d 8f 61 ae bc
       -0.008052095 0.014363841 0.035524603 -0.021286754
0001a0 52 ce 27 3d aa c7 4d 3d 88 a7 b6 bc 71 16 9a bc
       0.040968247 0.050239243 -0.022296682 -0.018809529
0001b0 df 30 37 3d a6 f9 3f 3d 3d 8d 38 bd 4b 9c 1c bd
       0.04472434 0.046868943 -0.04505657 -0.03823499
0001c0 3c 58 3f 3c 4c 4a cd bc 19 b7 3c bd 52 29 67 bc
       0.011678752 -0.025059842 -0.046073053 -0.014108973
0001d0 64 16 10 bd 47 78 cd 3c 95 35 aa 3c c1 42 13 bc
       -0.035177603 0.025081767 0.020777503 -0.008988083
0001e0 86 99 28 3d 3f 5a 18 3b 47 0a 06 3d bd b0 0a 3d
       0.041162036 0.002324715 0.032724645 0.033859957
0001f0 93 e5 35 bd 33 43 90 bb f4 1b 28 bd e1 80 b5 3c
       -0.044408392 -0.004402542 -0.041042283 0.02215618
000200 60 2d 1a bd c8 c4 e6 3c 05 e5 9d 3c 36 27 65 bc
       -0.03764093 0.028170004 0.019274244 -0.013986399
000210 a0 c8 9e bc 8c 46 41 bd 95 b8 29 3c 0a 69 8f bc
       -0.019382775 -0.04718642 0.010358949 -0.017506141
000220 c5 14 53 bd 42 d1 4b bd 2d 72 b6 3c 86 71 3d bd
       -0.05153348 -0.04976011 0.02227124 -0.046250843
000230 50 17 51 bb 9f 1e 59 bd 7f df 05 bc 30 08 3d 3d
       -0.0031904764 -0.05300772 -0.008170961 0.046150386
000240 15 27 4b bc 47 07 de bc bc 91 2f 3d b4 c2 ea bc
       -0.012399455 -0.02710308 0.042863593 -0.028657295
000250 93 ec 1d 3c 39 09 43 3d cc 40 60 bc 24 0d d7 3c
       0.009638923 0.047616217 -0.013687324 0.026251383
000260 27 6f 4b 3d 98 2f 15 bb dc 9a 42 bc d4 42 07 3d
       0.04966655 -0.0022763964 -0.011877742 0.033022717
000270 40 d3 42 3d dc ca 55 3d 3d 50 26 3d 91 4a 16 bd
       0.047564745 0.052195415 0.040603865 -0.036692206
000280 66 d2 a0 bb 1f dc 75 bc 8f 10 da bc 3a e8 46 3d
       -0.004907894 -0.015006094 -0.026619224 0.048561312
000290 8b ed 3e bd e5 12 97 3a ac 5f b9 bc 6f 43 13 3b
       -0.046613257 0.0011526017 -0.022628628 0.0022470613
0002a0 ac 39 21 3d b4 53 78 bc 79 c6 54 3d 4d b9 06 3d
       0.03936164 -0.015156675 0.05194709 0.03289156
0002b0 58 82 c4 bc cc fa 3b 3d cc af 0a bd e8 9a c3 bc
       -0.023987934 0.045893475 -0.03385906 -0.023877576
0002c0 e7 54 33 bd cd 48 31 3d 1e 9b ee 3c 0f 36 0a bd
       -0.04378214 0.04328232 0.0291267 -0.03374296
0002d0 b2 65 c6 bb e6 92 1d 3d a1 34 64 3d 10 d9 90 3b
       -0.0060546035 0.03847017 0.055714253 0.004420407
0002e0 cc 22 f1 3c 61 33 34 3d e4 c0 23 3d 14 63 d2 ba
       0.029435538 0.04399431 0.039978877 -0.0016051256
0002f0 d3 37 68 3d f1 f3 aa bb 5b 23 e7 bc a9 8c 04 3d
       0.056693863 -0.0052170684 -0.028215101 0.032360706
000300 4d a7 56 3c 1b f5 3d 3d 7b c6 1e 3d 6d 28 52 3d
       0.013101411 0.04637633 0.038763504 0.051308084
000310 84 26 01 3d ea b7 26 3d 44 b4 b1 bc 81 ff 1b 3c
       0.031530872 0.040702738 -0.021692403 0.009521366
000320 2c 0e 82 3c 90 6f 2b 3d 87 de a2 bc 86 a4 19 3d
       0.015875898 0.04185444 -0.0198815 0.037510417
000330 f6 ee 82 bc 02 c0 30 3d 47 e5 ab bc 37 cf e4 3c
       -0.015983086 0.043151863 -0.020983351 0.027930839
000340 8b 5e 82 bc 84 bc d6 39 e7 f9 31 3d 19 87 3a bd
       -0.015914222 0.00040957716 0.043451216 -0.045538995
000350 0f 54 15 bc fd ee f8 bc e2 e4 c5 3c a4 8f 8f 3a
       -0.009114279 -0.030387396 0.024156991 0.0010952842
000360 0b 66 21 3d 40 1a 7b 3c fe 2c f7 3c 7b 73 0e 3d
       0.039403956 0.015326083 0.030172821 0.0347781
000370 bd 16 2e 3d b0 54 50 3c ff ba e7 bc fc 87 80 bc
       0.042502154 0.012715504 -0.028287409 -0.015689842
000380 49 c0 31 bd 58 30 91 3b 00 63 20 3d 75 fe b6 bc
       -0.043396268 0.004430812 0.039156914 -0.022338131
000390 13 62 11 bd cd e0 05 3d bb 77 69 3d ef 77 de bb
       -0.03549392 0.03268509 0.05699895 -0.0067891995
0003a0 37 60 e8 3c 54 84 e2 ba a7 96 1c bd be 8b 09 3d
       0.028366191 -0.0017281868 -0.03822961 0.033580534
0003b0 24 b8 50 3d 97 3e 13 bc a8 56 88 bb 6c 14 56 3d
       0.05095686 -0.008987091 -0.004160721 0.05226557
0003c0 1f df e4 3c 03 b4 0a 3d 90 a0 a9 bc 2c d1 27 3d
       0.027938424 0.03386308 -0.020706445 0.040970966
0003d0 03 07 19 3d b7 d6 5c 3c 4c 5f 73 3d a4 01 40 3c
       0.037360203 0.013478926 0.059417054 0.011719141
0003e0 15 07 94 bc 7c 9b ef bb 08 8c 1d bd ce ad f0 3c
       -0.018069783 -0.0073122364 -0.038463622 0.029379752
0003f0 92 07 d0 3c 88 72 eb bc 2a 8d ec 3c f3 4d 02 bd
       0.025394235 -0.028741136 0.028875906 -0.03181262

fc1.bias f4 [120]
000000 77 16 87 3b be cf a8 3c 7d dc c1 3b 47 af 44 3d
       0.004122551 0.020606872 0.005916177 0.04801872
000010 51 7a 2b bd 6b 10 aa 3b a6 bb 34 3d 57 27 ae 3b
       -0.041864697 0.0051899455 0.044124268 0.0053147483
000020 3b b1 7d bb 3c 78 80 bc 13 4a 52 3c 44 d8 12 bd
       -0.0038710374 -0.015682332 0.0128350435 -0.03585078
000030 e8 6a 8e bc c9 c0 b7 bc d8 f0 2d bd 09 48 11 3d
       -0.017384961 -0.022430794 -0.042466015 0.03546909
000040 e5 a4 22 bd 24 6a 49 bd 97 28 0b bd 1b 02 41 3d
       -0.039708037 -0.04917349 -0.033974256 0.04712115
000050 38 51 62 bc d6 51 ad bc 8c 22 d4 bc ae 87 73 3c
       -0.013813309 -0.021157186 -0.02589538 0.0148638915
000060 f5 85 76 bc c5 47 a3 bb a1 40 1c 3d 1b 62 70 3c
       -0.015046586 -0.004982921 0.038147572 0.014671828
000070 fb d5 42 3d 0d 28 a2 bc d3 65 17 3d f7 1c ee 3c
       0.04756735 -0.019794488 0.03696234 0.029066546
000080 f0 dd 2b 3b ce 6d 07 bd 65 46 03 3d fc 5a 44 3c
       0.0026224814 -0.033063702 0.032049555 0.011984583
000090 e2 4a 51 bc fa 73 78 3d d1 fc 03 bc 2e 68 04 3d
       -0.012774201 0.06065748 -0.008055882 0.032325916
0000a0 24 b1 07 3d 7d 4c 3b 3d 96 1f ac b9 3d fb b8 3c
       0.03312792 0.04572724 -0.0003282993 0.022580737
0000b0 d4 2b 16 bd da c5 4c 3b f9 a2 0b 3b 45 07 8a 3c
       -0.03666289 0.0031245858 0.0021306856 0.01684917
0000c0 e5 f1 1a bd b7 b2 e2 3c 34 db c8 bb 17 fe aa ba
       -0.037828345 0.027673109 -0.0061296467 -0.0013045695
0000d0 a1 dd f7 bc c1 f3 bb 3c 7d fa a4 3c ca 78 e5 3b
       -0.030257048 0.02294338 0.020138973 0.0070029246
0000e0 a6 85 d6 3a 0f 2d 0a bd 26 72 ae 3c 75 c7 16 3c
       0.0016366735 -0.033734377 0.021294665 0.009202828
0000f0 37 98 5f 3b 52 e1 cd bc 4d a5 aa bc dc 27 10 3d
       0.0034117827 -0.025131855 -0.020830775 0.035194263
000100 a7 39 50 3d 2e 4b 06 bd 5a 7c 0a bc 72 75 51 bd
       0.05083623 -0.03278654 -0.008452499 -0.051137395
000110 35 2a 2a 3d 27 a2 12 bd 92 4c 40 3d fc 55 eb bc
       0.041544158 -0.03579917 0.046948023 -0.028727524
000120 07 8b 33 bd 02 bf 97 3c 24 74 18 3c 16 98 5d bc
       -0.04383376 0.018523697 0.009305034 -0.01352503
000130 53 01 19 bd 00 ed dd 3c 5a 6b 90 bc 8f 8b 04 bd
       -0.03735478 0.02709055 -0.017629314 -0.032359656
000140 a7 cd 38 bd d0 8a f7 bc 23 b8 f2 bc 7c 96 1f 3c
       -0.045118 -0.030217558 -0.029628819 0.009740468
000150 18 31 e3 3c 67 f9 e1 3c 2e 37 23 3d 0f f4 c0 3c
       0.02773337 0.027584745 0.039847545 0.023553876
000160 ff 3b c0 ba 61 d7 3a 3c f3 e4 0d 3d b4 cd 38 bc
       -0.0014666318 0.011403889 0.03464217 -0.011279512
000170 b5 bc 4b 3d 58 0c 09 3c 3d 90 f1 3c 8e c9 86 3c
       0.049740512 0.008364759 0.029487723 0.01645353
000180 95 f2 f6 3c 06 a7 a8 bc c0 30 16 bc f8 46 90 bc
       0.030144969 -0.020587455 -0.009166896 -0.017611966
000190 04 fd 04 bd 9f 1a 48 3d ca 5d 7f bb 0a 51 09 bc
       -0.032467857 0.048853513 -0.0038965815 -0.008381138
0001a0 c5 73 96 bc 76 42 52 bc 30 8b da bc 16 1e b0 3c
       -0.01836575 -0.012833228 -0.026677698 0.021498721
0001b0 26 3d 6d bc c5 e9 13 bd 22 d0 a8 bc f3 d1 fb 3c
       -0.014479911 -0.036111612 -0.020607058 0.03073976
0001c0 5b 00 75 3c 58 6c 0d 3d ae c0 6d 3c a4 63 16 bd
       0.014953698 0.034527153 0.01451127 -0.03671612
0001d0 6e ca fd 3c 2c 67 b3 3c 61 93 4d bb a8 d7 85 bc
       0.030980315 0.021899782 -0.0031368362 -0.016338184

fc2.weight f4 [84, 120]
000000 46 6b a6 bc 65 eb 84 3d a4 bb 8f 3d 8c 5e 3f bd
       -0.020314824 0.064902104 0.070182115 -0.046721026
000010 89 19 a3 3c 32 f7 86 3d eb ba 85 3c 75 cc 87 3d
       0.019909637 0.065901175 0.016324481 0.06630794
000020 06 84 2a bd c4 b8 a7 bd 4e 77 ce 3c c4 e3 af 3d
       -0.041629814 -0.08189538 0.025203373 0.08588365
000030 d4 fd 1c bd c1 d7 8f 3d 2c d4 56 bd 10 df d4 3b
       -0.038328007 0.07023574 -0.052448437 0.0064963177
000040 e4 a6 52 bd 1f 1d 0b bc ca 19 b6 bd 0f 53 c9 bd
       -0.05142869 -0.00849083 -0.088916376 -0.09830295
000050 74 cc 80 3d 7a 9d 97 bd 31 7d 0e bd 9c eb 9b bd
       0.06288996 -0.07403083 -0.03478736 -0.07613298
000060 2b bc 9d bc 21 3b ab 3d 2f bf cc 3d 40 ea 54 3d
       -0.019254765 0.08360887 0.09997403 0.05198121
000070 69 b6 0c 3b 2f 46 a7 bd 33 62 31 3d e1 1e 8c bc
       0.002147103 -0.08167683 0.04330654 -0.017104568
000080 64 c0 50 3d ca b9 34 3c d6 f2 99 3d b7 ce 27 3d
       0.050964728 0.011030624 0.075170204 0.040968623
000090 64 b9 20 3b 46 20 85 3c b7 4a 8c bd a1 5f 62 3c
       0.0024524564 0.01625074 -0.06850188 0.013816745
0000a0 24 49 85 3d 23 c1 3d 3d f3 43 7f 3d 12 02 24 3d
       0.06508091 0.046326768 0.06232066 0.040041037
0000b0 90 43 65 bd db 4c 0d 3d b9 6a 2b bd fd 8e 5b bc
       -0.055972636 0.034497123 -0.041849826 -0.01340079
0000c0 2d ba 05 3c 25 3a 98 3d 18 d6 11 bd 66 94 23 bd
       0.008162064 0.07432965 -0.035604566 -0.039936446
0000d0 78 23 eb 3c 43 d1 66 bd 72 23 24 bd e9 a7 24 3d
       0.028703436 -0.05635191 -0.040072866 0.040199194
0000e0 49 94 9e bd a5 0a 88 bd dc 55 f9 3c 61 39 6c 3d
       -0.07743127 -0.06642655 0.030436449 0.05767191
0000f0 47 aa 2f ba 9c 14 d2 bb 12 42 c9 bc b4 a3 a6 bb
       -0.00067010935 -0.0064111482 -0.024567638 -0.005085433
000100 00 a9 8a bc 5c 05 85 3c dd 2c 14 b9 96 cc a5 3d
       -0.016926289 0.016237907 -0.00014131093 0.08095662
000110 0e f3 85 bd 81 06 60 3d 20 8a cb bc d4 60 20 3d
       -0.065405 0.054693703 -0.024846137 0.039154842
000120 f3 f8 bd bb d7 d7 1c bd d2 1b 0b 3d 72 42 4c 3c
       -0.0057974993 -0.03829178 0.03396208 0.012467014
000130 4f 99 9a 39 b7 67 34 bd 38 65 b7 bd ba 12 bf bc
       0.00029487393 -0.044044223 -0.08954853 -0.02332436
000140 11 37 f7 3c c7 8a 2e bb b9 f8 8d 3d 37 f0 76 3a
       0.030177625 -0.002663301 0.06932206 0.000941995
000150 16 26 b6 3d ad 82 a1 bd 8d 81 d5 ba 7c 62 05 bd
       0.08893983 -0.078862526 -0.001628922 -0.032564625
000160 58 cf 2d 3d e5 d7 5f 3d dd 09 a6 bd 4d d2 af 3d
       0.042434067 0.054649252 -0.0810735 0.085850336
000170 e8 c3 74 bd f2 50 27 bc dd f0 aa 3d 16 a7 98 3d
       -0.059757143 -0.01021217 0.08346722 0.07453744
000180 6b 8f af bd 87 5f 36 bd c3 e7 b3 bc cf fd 9a 3d
       -0.08572277 -0.044524696 -0.021961099 0.075679414
000190 b3 71 99 bd d1 90 3a 3d c4 8b 86 3d ed 24 1d 3d
       -0.074923895 0.045548264 0.06569627 0.038365293
0001a0 eb 5e 05 3d ad 8a ae bd 32 0a 88 3d 39 c3 ff bc
       0.032561224 -0.08522544 0.066425696 -0.03122102
0001b0 3c 8a ad 3d ee 5b 1d bd 2e 56 dd bc c3 5c b2 bd
       0.08473632 -0.03841775 -0.027018633 -0.08709099
0001c0 1e 1e 13 bd 4f ce c8 bc 5d 7e fa 3c f3 ae 96 bd
       -0.035917394 -0.024512438 0.030577833 -0.07357588
0001d0 b2 4c ca 3d 64 37 ac bd 8d b7 ac bd 0a 20 77 bd
       0.0987791 -0.084090024 -0.08433447 -0.06033329
0001e0 ec 71 3f 3d 14 79 8b 3d 02 4e b8 3c 00 c6 cf bc
       0.046739504 0.06810203 0.022498135 -0.025362968
0001f0 b1 53 a1 3d 85 08 2a ba 45 7c ce 3b 23 6a ae bd
       0.07877291 -0.0006486255 0.006301435 -0.08516338
000200 e8 de d7 bd 7e d9 38 3d e5 38 11 3d d6 23 25 bc
       -0.10540563 0.04512929 0.03545465 -0.010079345
000210 c1 d8 18 3d da 13 a0 bc 44 23 0a bd 2c 82 81 bd
       0.037316088 -0.019540716 -0.03372504 -0.063236564
000220 b8 44 4f bd bf 3b 35 3d 6a 68 79 bd d2 2a 0d bb
       -0.050602645 0.04424643 -0.060890593 -0.0021540415
000230 d2 1a af 3d 58 2e da 3c 31 c4 9f bc 00 3f aa 3c
       0.085500374 0.026633427 -0.019502731 0.020781994
000240 f8 bc 75 3d 4a 59 93 3d 8b 37 1a 3d fd 5c 92 3d
       0.059994668 0.07194765 0.037650626 0.07146642
000250 42 c3 e5 bc ff 4c e5 3c de 64 ae 3d 6f 52 0f ba
       -0.028047208 0.027990816 0.08515333 -0.00054673007
000260 ed b1 f7 3c fc 4a 62 3d 3d 73 f8 3c 0b a8 ef 3b
       0.030236209 0.055247292 0.030328387 0.0073137335
000270 b1 68 5b 3d 6d d4 5f bd 19 d7 86 bb 4a a9 b4 3d
       0.05356664 -0.054645944 -0.004114997 0.08821352
000280 a8 8f 8d bd dc ad a5 bd b0 92 53 3d 02 a4 7a 3c
       -0.06912166 -0.08089802 0.051653564 0.015297892
000290 82 96 42 bc b3 fd 5e bd d7 b3 ba 3c 40 83 9b bd
       -0.011876704 -0.054441165 0.022790832 -0.07593393
0002a0 98 92 8e bd b2 2a 55 3d 8a 3f 3a bd d8 c1 29 bb
       -0.06961554 0.05204267 -0.04547075 -0.0025902893
0002b0 62 09 94 3b e5 eb ac 3c 0f 5f ad 3d db a4 93 bd
       0.00451772 0.021108577 0.084653966 -0.07209178
0002c0 cb c4 1d 3c 81 f7 af 3d ae 17 23 bd 44 f7 9c bd
       0.009629439 0.085921295 -0.039817505 -0.0766435
0002d0 76 db 9e ba c0 a7 58 3d d9 6d e7 bc 96 d7 2d bd
       -0.0012119848 0.052894354 -0.028250622 -0.042441927
0002e0 ad fb 7a 3c 0f c0 af 3d de ab 79 3d 40 35 89 bc
       0.015318793 0.08581554 0.06095492 -0.016749024
0002f0 ee 02 b3 3d 18 bf 5b bd 9e 2b 71 3d 66 ba 9a 3c
       0.08740793 -0.053649038 0.058879487 0.01888771
000300 48 39 0c bd 05 15 9e 3d 96 f4 a8 3d ec 14 b3 3d
       -0.034234315 0.07718853 0.08249776 0.08744225
000310 8c 17 57 bd 57 25 a0 bd 34 be b0 3d 3a a4 87 bd
       -0.05251269 -0.07819622 0.08630028 -0.066231206
000320 cd 0e 4e bd cd 7f 56 3d a1 51 41 bd cc 55 05 3d
       -0.050307084 0.052367974 -0.047196988 0.032552525
000330 cf 66 b9 3c ab 1c 54 b9 9a a6 93 3c a0 11 5b bd
       0.02263203 -0.00020228575 0.018023778 -0.053483605
000340 15 60 7f bd e7 a8 a5 3c 0b 73 7a 3d b3 ae 98 bd
       -0.06234749 0.02022214 0.06114487 -0.07455196
000350 f4 b7 cb bc 6f e5 87 3d 5f f3 1a bd 89 4a bc 3c
       -0.02486799 0.06635558 -0.037829753 0.02298476
000360 f0 e1 9b 3c c7 b1 b0 bd e0 59 f4 ba c0 f7 75 3d
       0.019028634 -0.08627658 -0.0018642507 0.060050726
000370 9b 94 93 bd 49 9d 09 3d 4d c2 7c bd fd 69 24 3d
       -0.072060786 0.033597264 -0.061708737 0.04014014
000380 c7 79 52 bc c0 9e 14 3d 0f 66 82 bd 6e d5 53 bc
       -0.012846417 0.03628421 -0.063671224 -0.012929304
000390 c5 b3 91 bd 5b e1 65 bd ec f4 87 bd b2 c8 aa bd
       -0.071143664 -0.05612312 -0.06638512 -0.08339061
0003a0 13 1a 07 3c 8f 2f 19 bc 3a ca b8 3d 19 24 92 3d
       0.008245963 -0.009349718 0.09022947 0.07135791
0003b0 a2 d8 56 bd 41 52 67 3c d3 8e ab bd d3 1e c9 bc
       -0.05245269 0.014118732 -0.08376851 -0.024550831
0003c0 5c c7 33 3c e9 04 e9 3c d4 b3 8a bc d7 74 ad bc
       0.010972824 0.028444724 -0.016931452 -0.021173878
0003d0 b9 b9 13 bd 60 38 17 bc 60 7c 86 3d 14 46 bd 3d
       -0.03606579 -0.009229749 0.065666914 0.09241882
0003e0 ac 9f 9b bd 3f 0f a5 bd f0 52 2d bd e2 b8 a1 bd
       -0.07598814 -0.080595486 -0.042315423 -0.07896592
0003f0 dc 48 e4 3c 76 a2 32 3d a6 34 fe 3c 5a 1c 12 bd
       0.027866773 0.043611966 0.031030964 -0.03567157

fc2.bias f4 [84]
000000 23 a1 5a 3d 95 9b eb 3b 66 04 dd 3c ff 5e 08 bd
       0.05337633 0.0071901777 0.026979636 -0.03329372
000010 e9 7f ae 3c 48 21 54 3d ac 47 72 bd 26 e2 93 3d
       0.021301227 0.051789552 -0.059150383 0.07220869
000020 fe b9 d0 3d 78 01 17 3c 03 07 eb 3c f8 0d 00 3d
       0.10191725 0.009216659 0.028689867 0.03126332
000030 e5 a1 be 3d 19 8c b0 3c 3c c8 5e 3c 55 fc a3 3c
       0.09308223 0.021551179 0.013597544 0.020017782
000040 87 7f a9 3d 75 53 b2 3c 26 d6 02 3d 0c 99 a1 bd
       0.08276277 0.021768311 0.03194251 -0.078905195
000050 03 a8 0e bd e1 ef be bc f0 5c 02 3d 2c 74 58 bd
       -0.034828197 -0.023307743 0.031826913 -0.052845165
000060 e7 ee 5e bd 09 0f 60 3a 3a e3 29 3d bb d1 8c 3d
       -0.054427054 0.0008547162 0.041476466 0.068759404
000070 c2 19 96 3d a5 69 d3 3c 04 0a ae 3d 98 c5 97 3d
       0.07329132 0.025807211 0.08498004 0.07410735
000080 1d a1 fb 3b fb d7 f1 3b 8e 1c 12 3d 12 df 8a bd
       0.0076791183 0.007380483 0.035671763 -0.067808285
000090 81 f3 a7 bd ed 5e d7 3c 06 1d 0e bc 70 bc 90 bc
       -0.082007416 0.026290381 -0.008673912 -0.017667979
0000a0 9e ad c3 3d 4e 30 3d bd aa 32 84 3d 15 f2 dc 3b
       0.09554599 -0.046188645 0.06454976 0.0067427256
0000b0 5e 1d 96 bd 9b 06 14 bd d7 c2 5f bd 37 b7 b6 3d
       -0.0732982 -0.036139112 -0.054629173 0.08921664
0000c0 dd 57 e8 bb 68 eb 94 3c af 8b 67 bc 11 aa 84 bd
       -0.0070905522 0.018178657 -0.014132424 -0.0647775
0000d0 25 93 bc ba cc 3a f2 3c 27 39 c4 3d 32 c8 ac 3c
       -0.0014387114 0.029569052 0.095812134 0.021091554
0000e0 49 4e 01 3d e0 8b a8 3d 65 f0 9b bd d0 0c 96 3d
       0.0315688 0.08229804 -0.07614211 0.073266625
0000f0 bc 73 ab 3c 38 a5 9b 3c 21 5c 8b bd b1 a4 a7 bd
       0.02092921 0.01899968 -0.068046816 -0.08185709
000100 c2 19 98 3d 2f 3e b7 bd f7 98 d9 3c d6 06 2c 3d
       0.07426788 -0.089474075 0.026562197 0.041998707
000110 3d 8c 5a bd a2 08 b9 bd 6a 19 40 bd 3b 86 af 3d
       -0.053356398 -0.0903485 -0.046899237 0.08570524
000120 7b ba 47 bd 2b d9 11 3c 44 84 4c bc e1 d7 7d 3d
       -0.048761826 0.008901875 -0.012482706 0.061973456
000130 0d f4 87 bd 2a d4 2c 3a cd 09 9f bc b9 b3 96 3d
       -0.06638346 0.0006592894 -0.019413853 0.07358498
000140 70 71 07 bd 21 be 55 3d 24 21 29 3d e9 27 b7 bc
       -0.033067167 0.052183274 0.04129137 -0.022357898

bn2.weight f4 [16]
000000 7b 37 81 3f cd c2 81 3f 54 e0 81 3f c6 78 81 3f
       1.0095056 1.0137573 1.0146585 1.0114982
000010 72 0b 83 3f f0 be 81 3f 0b a8 81 3f e5 3e 82 3f
       1.0237868 1.0136395 1.0129408 1.0175444
000020 b8 13 81 3f 41 44 81 3f 10 72 82 3f 12 ef 81 3f
       1.0084143 1.0098954 1.0191059 1.0151083
000030 3d 6b 81 3f c7 11 82 3f b4 85 81 3f 7c ef 81 3f
       1.0110852 1.0161675 1.0118928 1.015121

bn2.bias f4 [16]
000000 3d 53 2a 3b 43 36 e6 3b 1f 7d f8 3b 43 27 98 ba
       0.0025989555 0.0070255115 0.007583275 -0.0011608381
000010 10 86 74 3c 39 56 12 3b 42 39 b9 bb 62 a9 21 3c
       0.014924541 0.0022329225 -0.0056525776 0.009867044
000020 e2 4c d8 ba 98 7b 93 bb b6 40 bc 3b b3 fc 4e 3c
       -0.0016502405 -0.0045008175 0.005745019 0.01263349
000030 0e 1b 6b 3c c2 0c 04 3c c6 a2 9b 3b 13 72 29 3c
       0.014349712 0.008059682 0.0047496287 0.010342139

bn2.running_mean f4 [16]
000000 72 df 21 3d 56 b6 7a bd 66 06 08 be 85 35 a4 3e
       0.039519735 -0.061209045 -0.13283691 0.32072082
000010 98 42 6a bf 5e 02 91 3c 7b 58 8c 3e 11 aa 2a bf
       -0.91507864 0.017701324 0.27411255 -0.6666575
000020 78 8a e0 3d 64 5e b2 bd 72 a9 8c 3f d4 8e 24 bf
       0.10963911 -0.0870941 1.0989211 -0.6428044
000030 ac 0d 97 be fe 95 39 3e d7 bf ba bc 0e 24 1e bf
       -0.29502618 0.18123624 -0.022796554 -0.61773765

bn2.running_var f4 [16]
000000 30 f6 0e 3e be 10 48 3e 8e ee ee 3d cf f8 e8 3d
       0.139611 0.19537637 0.116665944 0.113755815
000010 16 d1 87 3e cc 24 1f 3e 1d 83 f7 3d f5 c8 b9 3e
       0.26526707 0.1554138 0.12085555 0.3628613
000020 8c bd 30 3e 79 0d fb 3d b9 e2 a2 3e ab b9 c1 3e
       0.17259806 0.12258429 0.318136 0.37836966
000030 43 eb 13 3e f1 03 4b 3e bd 0a e1 3d 39 1c 99 3e
       0.14445214 0.19825722 0.10988376 0.29904345

bn1.weight f4 [6]
000000 59 71 81 3f cf 1f 80 3f 6a b6 80 3f 06 0f 81 3f
       1.0112716 1.0009707 1.0055668 1.008271
000010 78 79 81 3f cb 95 81 3f
       1.0115194 1.0123838

bn1.bias f4 [6]
000000 ff 41 17 3b a7 43 d9 bb ae 4a 27 bb 92 27 5b bb
       0.0023080108 -0.0066303792 -0.002552669 -0.0033440334
000010 d5 8d 13 3c 56 46 8e 3b
       0.009005983 0.004341881

bn1.running_mean f4 [6]
000000 e0 a7 a1 bd 55 0c ef 3d 33 75 ce 3d f8 9b 2b 3d
       -0.07893348 0.11672274 0.10080948 0.04189679
000010 0d d0 95 be f6 6f 54 be
       -0.29260293 -0.20745835

bn1.running_var f4 [6]
000000 5a 7b b3 3c 20 86 a9 3d 60 50 ba 3c bf 6f c9 3c
       0.021909405 0.082775354 0.022743404 0.024589418
000010 32 fb 85 3d 90 93 d9 3c
       0.06542052 0.026559621

fc3.weight f4 [3, 84]
000000 fd 00 f4 3d 5a 92 41 3d 4c 63 e7 3d 66 1e d0 bd
       0.11914251 0.047258712 0.11298236 -0.10162048
000010 3b 35 41 3d aa 9c 5a 3d be ff b9 3d 81 9e 98 bd
       0.047169905 0.053372063 0.09081982 -0.07452107
000020 a7 76 68 bd fa b0 78 3d 87 74 92 bd ab a6 e9 3d
       -0.05675378 0.060715653 -0.07151132 0.114087425
000030 04 d6 ae bd e6 26 1d 3d cb 9b d1 bd ed a6 db bd
       -0.08536914 0.038367175 -0.10234793 -0.10725198
000040 04 f9 73 bb c2 49 b4 bd 06 a0 e5 3d 26 2c a3 3c
       -0.0037227282 -0.08803131 0.11212163 0.019918513
000050 a2 78 f0 3b c6 d2 ca 3d 24 a0 82 bd 79 36 9d 3d
       0.0073385993 0.09903483 -0.06378201 0.076764055
000060 a2 48 93 bd 4d 06 53 bb f1 9d c3 3c 68 8f e9 3d
       -0.07191588 -0.00321998 0.023879023 0.11404306
000070 db 12 6b bc 25 0b b6 bd 14 e1 82 bd aa c6 eb 3d
       -0.014347757 -0.088888444 -0.063905865 0.115125015
000080 44 39 ba 3c 5a b6 4d bc 08 10 cf bd 40 9e 66 3d
       0.022732385 -0.012555683 -0.101104796 0.056303263
000090 dc ca 3f bd dd 8d a7 bd 9f 2b ef 3d bd bf ef bd
       -0.04682432 -0.08181355 0.11678242 -0.11706493
0000a0 a8 dc 09 be c7 e4 d4 3d 90 41 45 3d 0d 92 b1 3c
       -0.1346308 0.10395198 0.04815823 0.021676088
0000b0 69 93 e8 3c b7 ba 11 3d 61 c9 80 3d ef 05 bb 3d
       0.028390603 0.035578456 0.0628841 0.09131991
0000c0 ac 04 60 bd bf a5 89 bc 8d 8a dd 3c 6d c2 65 3b
       -0.054691955 -0.016802667 0.027043605 0.0035058514
0000d0 ba 00 25 3d d2 18 a8 3b 8e 75 70 bd c5 01 56 bd
       0.040283896 0.005129912 -0.05870586 -0.05224778
0000e0 a8 28 4a bd 22 1d 8d 3d 30 8f 77 3c 43 c3 f9 bd
       -0.04935518 0.06890322 0.015109822 -0.12195446
0000f0 a2 da 08 be bb dd 50 bb 12 e7 b6 bd ef 42 6d bb
       -0.13364652 -0.0031870443 -0.08930792 -0.0036203226
000100 84 b0 db bc f3 cb da bd 5a e3 66 bd 08 7e c9 3d
       -0.026817568 -0.106834315 -0.056369163 0.09838492
000110 ab 0e 95 3b 1f 24 2c 3a 00 2c d9 bd 95 ae a0 bd
       0.0045488677 0.0006566662 -0.106040955 -0.07845799
000120 2f 40 cc bd 7b fc 50 3d 0e b7 2a bd 6c 85 2f bd
       -0.099731795 0.051022034 -0.04167848 -0.04285185
000130 a2 42 92 ba 01 ba b0 bd a5 49 bd 3c 5e ef ad 3d
       -0.0011158774 -0.086292274 0.023106406 0.08492921
000140 44 cc f8 bc c5 74 51 3d 93 74 89 bc 29 13 aa bc
       -0.030370839 0.05113675 -0.01677922 -0.02076109
000150 9a 3d c8 bc 9e 1a 0a bc 1e 81 d9 bd fd 5b b6 3d
       -0.024443436 -0.008429198 -0.1062033 0.08904264
000160 eb 0b db bc cb 09 dd 3d d3 57 98 bd 33 63 96 3d
       -0.026739081 0.107928835 -0.07438626 0.073431395
000170 a0 65 b6 3d 0f 91 5e 3d 7a 18 18 3d 12 66 b3 bd
       0.08906102 0.054337557 0.037132718 -0.08759703
000180 a3 85 fd 3d d3 f9 84 bd 9d 8f 45 bd 0c 91 bc 3d
       0.12379005 -0.06492963 -0.048232663 0.09207353
000190 79 1a 98 bd ec 24 90 bd a1 c8 3b bd f3 d1 89 bd
       -0.07426924 -0.07038292 -0.04584563 -0.06729498
0001a0 d4 3e 99 3d 16 b1 70 3d f8 7f a5 bd 6d 95 c8 bd
       0.07482687 0.058762632 -0.08081049 -0.09794126
0001b0 18 98 8a bb 2b 64 37 bd b1 5e c7 3c 8d 63 01 3c
       -0.004229557 -0.044773262 0.024337145 0.00789727
0001c0 80 75 2f bd 60 ed c8 3d 30 14 7c bc 6f 45 da bd
       -0.042836666 0.09810901 -0.015385672 -0.10657775
0001d0 bf 13 da 3d 06 53 da 3c 6d 14 86 bd fc e3 45 bd
       0.106482975 0.026650917 -0.06546865 -0.048313126
0001e0 e0 17 2d bd 3a 23 39 bc b6 9b a1 bd d6 9a ab 3d
       -0.042259097 -0.011299903 -0.07891028 0.08379142
0001f0 a5 8e 8c 3d ea 30 81 bd 35 47 46 3d 38 67 de bd
       0.06863145 -0.06308158 0.048407752 -0.10859531
000200 51 ac a3 3d 53 bf da 3d cb 69 ce 3d 74 56 27 bd
       0.07991851 0.106810234 0.10078772 -0.040853932
000210 69 54 13 bd e3 2e 98 3d 89 e6 b8 bd 20 27 e7 3b
       -0.03596917 0.07430818 -0.09028346 0.0070542246
000220 8c 77 3f bd ad 91 ee 3d 98 a3 a1 3d a0 97 a4 bd
       -0.04674487 0.11648879 0.07892531 -0.08036733
000230 83 14 91 bd 17 d0 a8 bd 81 03 30 bc 83 27 ab 3d
       -0.070839904 -0.08242815 -0.010743023 0.08357146
000240 8d f8 a5 bc e8 f4 ad bd 16 57 87 3d 39 64 aa 3d
       -0.02026012 -0.08493978 0.06608407 0.08319897
000250 69 60 cb 3d 7d e0 d9 3d ab 6f 25 3d 58 86 d5 bd
       0.09930498 0.10638521 0.040389698 -0.10426015
000260 d7 d3 9f bd 1d 5c 9a 3d aa 12 a8 3d 19 3d 82 bd
       -0.07804077 0.075371005 0.08206685 -0.0635931
000270 d3 16 c1 bd 94 d9 6d 3d ba 49 ce bd 11 c0 ab 3c
       -0.094281815 0.058068827 -0.10072656 0.020965608
000280 d7 1c 0d bd 64 0f ea bd 8e 77 5c bd 93 e6 a7 bd
       -0.034451332 -0.11428717 -0.053824954 -0.081982754
000290 a1 83 d5 bd fa 42 58 3d 54 7b 2b bd 17 3e a6 3d
       -0.10425497 0.05279825 -0.04186566 0.081173114
0002a0 1c 4a 36 3d f8 7c b1 3d 7f e9 53 3d 24 fd 49 3d
       0.04450427 0.08666414 0.05173635 0.04931368
0002b0 54 00 8a bc b5 b7 55 bd d2 2c df bd 46 a9 89 3c
       -0.01684586 -0.05217715 -0.10897221 0.016804349
0002c0 e2 a6 94 3d 34 4e 08 bd f7 a1 ad 3d 74 a6 5a bd
       0.07258393 -0.033277705 0.08478158 -0.0533814
0002d0 b3 6c dd bc 6f 28 c2 bd de ae 5e 3d a0 93 45 3d
       -0.02702937 -0.09480368 0.054365985 0.04823649
0002e0 2e 89 e7 3d 7b 41 7c 3d 42 cb e8 bc 6c 98 b0 3d
       0.11305462 0.061585885 -0.028417233 0.08622822
0002f0 21 0c b6 bd b7 a3 dc bd f8 17 40 3d 1f cd bb 3d
       -0.08889032 -0.10773414 0.04689786 0.09169983
000300 f2 09 98 bd 63 5c 91 3d fb 0e 98 3c 94 c4 91 3b
       -0.07423772 0.070976995 0.01856183 0.0044484828
000310 bc 4a 0b be 6a 0a 36 bb b1 30 b3 bd af 57 d3 bc
       -0.13602728 -0.0027777203 -0.087495215 -0.025798647
000320 16 a6 39 3a 3b 59 84 3d 18 d8 bb bd ee a5 54 3d
       0.00070819387 0.06462332 -0.09172076 0.051916055
000330 21 4f 5f 3d a0 93 e2 3d f0 81 18 bd 95 8a f6 3c
       0.054518823 0.110633135 -0.037233293 0.030095378
000340 22 36 b8 3a ae 5d 93 3d bc 96 a4 3d 5d 6c 45 bd
       0.0014054219 0.07195602 0.08036563 -0.048199046
000350 be 23 d1 bd 01 77 8e bd 0b 5c c6 bd f9 d1 96 3d
       -0.102118954 -0.06956292 -0.096855246 0.07364268
000360 6a 7e ed bd 82 81 35 3c 91 f0 64 3d 0b 4a be bd
       -0.11596377 0.01107824 0.055893485 -0.09291466
000370 59 24 f9 bd 81 f2 d5 bb 37 91 ed bd c5 01 98 3d
       -0.12165136 -0.006529153 -0.11599963 0.074222125
000380 8a 86 b4 3d 9b 19 60 bb 62 b4 d8 bb c5 17 81 bd
       0.08814724 -0.003419495 -0.0066133 -0.06303362
000390 b3 d7 f3 3c 0c fc 50 3d 06 c5 92 bc 3a 5a 68 bc
       0.02976594 0.05102162 -0.017916214 -0.014181668
0003a0 52 f5 c9 bc 7f 74 a9 bd e0 44 2d bc e9 a9 52 bd
       -0.02465311 -0.08274173 -0.010575503 -0.05143157
0003b0 ed 1a 35 bd 60 b4 f5 3b 39 84 a7 3d 76 b6 e7 3d
       -0.04421513 0.007498309 0.08179516 0.113140985
0003c0 c3 28 21 bd a1 55 cb bd f2 3d 2e 3d 0a 4c 3e bd
       -0.039345514 -0.09928442 0.042539544 -0.046459235
0003d0 26 31 33 bd 28 23 b5 3d 68 03 c6 3d 56 ee 5f bd
       -0.043748043 0.08844596 0.096686184 -0.054670654
0003e0 1f 0f 91 bd a4 9b e1 bd c6 8b 79 bc 92 1d ce bd
       -0.07082962 -0.11016014 -0.0152310785 -0.10064234

fc3.bias f4 [3]
000000 dd d6 93 3c ee f1 99 3d 1b 7b e5 3c
       0.01804679 0.075168476 0.028012803
